best_models/best_gnn.pth (torch, 84676 bytes, 10 tensors)

convs.0.lin_l.weight f4 [64, 27]
000000 b9 6c 29 be 3e 42 0a bd 46 4f db bd fe e2 8a bc
       -0.1654538 -0.03375458 -0.107084796 -0.016953941
000010 e3 04 c5 3c c9 b6 2d be f1 a8 05 3e 56 c9 42 3e
       0.024050182 -0.16964258 0.13052727 0.19022116
000020 7b c2 bd bd 93 e7 78 3d 5b e7 97 3d 14 b1 61 bd
       -0.0926561 0.06076772 0.074171744 -0.055100515
000030 69 1d 1e 3e 48 be 28 be d4 77 e9 bd 32 51 24 be
       0.15440907 -0.16478837 -0.113998085 -0.16046599
000040 b0 69 b4 bd ee 32 20 3e 1b 85 2a be 05 32 a9 3c
       -0.08809221 0.15644428 -0.16652338 0.020653734
000050 d4 7a 0a 3e ac da e1 bd 8a d2 e1 bd db f4 ef bd
       0.13523418 -0.110280365 -0.11026485 -0.11716624
000060 b4 6e 6f bd 2e 52 50 3d 8a 47 c2 3d 9c 9c 02 be
       -0.058455184 0.050859623 0.09486301 -0.12755054
000070 18 54 c5 bd a5 31 00 bf f5 ca 0c bf aa 6c 11 be
       -0.0963518 -0.5007575 -0.5499719 -0.14201608
000080 3b b6 93 bc 1e ab 37 bc 5f 1c 19 be c4 3e f7 bd
       -0.01803123 -0.011210231 -0.14952229 -0.120725185
000090 ce 07 23 3e 2c 3b 1d be 00 bc 21 be e0 03 aa 3d
       0.15920946 -0.15354604 -0.15794373 0.0830152
0000a0 2a dc 53 bd 38 bd 85 3d c8 94 85 3d 3d c1 a0 bd
       -0.051723637 0.06530231 0.065225184 -0.07849357
0000b0 19 8c f2 ba 91 14 1a be 6a d1 3c be e7 b3 2e be
       -0.0018504887 -0.15046908 -0.1843926 -0.17060815
0000c0 7f 79 ea bd 22 43 2e 3e 06 c1 12 bd c2 64 fa bd
       -0.11448955 0.17017797 -0.035828613 -0.12226249
0000d0 49 0d e0 3d 29 12 bb bd 42 27 89 be aa 51 94 bc
       0.10940034 -0.09134323 -0.26787764 -0.018105347
0000e0 08 ad 43 be 9f be a5 3e dc fa 07 3e ea 3b 22 be
       -0.19108975 0.32371995 0.13279289 -0.15843168
0000f0 10 95 2e 3e b0 d8 8f bd 56 eb e9 bd 19 37 54 3d
       0.1704905 -0.07023752 -0.1142184 0.051810358
000100 b3 b9 e8 bd 12 c5 81 bd 51 cd 3a 3e 47 ba 78 bd
       -0.11363544 -0.06336416 0.18242384 -0.060724523
000110 f2 d6 02 3e 45 ad 25 be d7 ef 0f be 62 78 ac bc
       0.12777308 -0.16179378 -0.14056335 -0.021053497
000120 60 2b 2a be 0b 5c 45 bd 6a 0e e7 3d e5 04 c8 3d
       -0.16618109 -0.048183482 0.11282046 0.097665586
000130 81 f3 7b bd 38 cf 0b bd 71 6b 2e be 54 3a b3 3d
       -0.06151152 -0.034133166 -0.17033173 0.087513596
000140 3d bc 89 3d cd 61 f1 bd 67 19 25 be cc 2d 3e be
       0.06725357 -0.11786232 -0.16122971 -0.18572158
000150 9d 80 39 3e 64 bc 36 be 92 a5 8a 3b 82 57 23 bd
       0.18115468 -0.17845303 0.0042311633 -0.039878376
000160 fb 17 80 bd 12 3e e2 bd 7d 58 14 bd a4 6c ac 3c
       -0.06254574 -0.11046995 -0.0362172 0.021047898
000170 9a 14 2b be fb 54 12 be d5 ff 60 3c 09 43 4e 3d
       -0.16707078 -0.1429023 0.01373287 0.0503569
000180 e7 9f 8d bd 5e d7 43 bd 55 c3 f6 bd fc 50 0d bd
       -0.069152646 -0.047812812 -0.120489754 -0.03450106
000190 25 eb 32 be 19 52 35 be 40 e5 2e 3d 0f af 61 ba
       -0.17472513 -0.17707099 0.0426991 -0.00086091546
0001a0 98 95 98 3c 9b f6 03 be d4 3f 30 3c f6 20 d7 bc
       0.01862602 -0.12887041 0.010757405 -0.026260834
0001b0 56 77 1b be 0c 2b 56 ba 57 b7 04 3f 17 11 88 be
       -0.15182242 -0.00081698666 0.51842254 -0.2657554
0001c0 3d cb 86 bd 24 d8 30 3e 4d ef 26 bd 8d 74 1a 3e
       -0.065817334 0.17269951 -0.04075556 0.15083523
0001d0 24 eb 91 bd d8 31 c1 3c 50 2b 27 3e b9 8f 3f bd
       -0.07124928 0.023583338 0.16325116 -0.046767924
0001e0 ff 73 12 be 2c d0 26 bd 4f 04 65 3d e6 3f 8e bd
       -0.14302061 -0.040725872 0.055912312 -0.069457814
0001f0 b1 28 38 3d ba b6 80 3c 09 51 31 bd fe 66 ff 3b
       0.04496068 0.01571213 -0.04329017 0.00779426
000200 3e 9c e4 bd 3f ec 29 be 64 70 96 bd a4 2c ac 3d
       -0.11162613 -0.16594027 -0.073456556 0.08406952
000210 2d 43 1b 3e ea fc 96 3d 48 0b 16 bd 20 7a 3e be
       0.15162344 0.07372458 -0.036631852 -0.18601274
000220 d2 6d a8 bb e6 9c 11 3d 7d 0d 0e 3e 88 5e da bd
       -0.0051400447 0.03555002 0.13872333 -0.10662562
000230 0f 6c 8b bd 41 92 83 3d df f9 41 3e bf cd 27 be
       -0.0680772 0.0642438 0.18942975 -0.1638708
000240 e9 92 ea bd 63 90 65 bd d3 bc 30 3e 0d f6 b3 bb
       -0.11453802 -0.0560459 0.1725953 -0.005491978
000250 54 c2 88 3c 57 2c 40 be 94 7f 3c be 3b 01 1e bd
       0.016694225 -0.18766914 -0.18408042 -0.038575392
000260 d0 77 2e be 47 d3 a3 3d 4a ee e3 3b 61 3b ff bd
       -0.17037892 0.07999282 0.0069558965 -0.124624975
000270 f0 02 9a 3d 4c 6c 5d 3d 04 c5 f2 3d 09 5d 66 bd
       0.075200915 0.054058358 0.11853984 -0.05624107
000280 b1 cd ad 3a 16 1b 16 3c 83 f4 50 bd 12 21 d0 bd
       0.0013260153 0.009161731 -0.051014435 -0.10162558
000290 cc 78 86 bc 04 7d 40 bd b4 9d 07 3e 1c 55 44 be
       -0.016415022 -0.046994224 0.13243753 -0.19173092
0002a0 db aa 66 3d 43 90 3d 3e 98 b8 bb bd 9f d2 d4 3a
       0.056315284 0.18512063 -0.09166068 0.0016237086
0002b0 24 1f 98 3c a0 5f fe bd d9 1e 3b be cf e3 0a 3e
       0.018569537 -0.12420583 -0.18273486 0.13563465
0002c0 97 e4 87 3d e3 66 0d be 35 46 24 be 4a f3 22 3d
       0.06635397 -0.1380878 -0.16042407 0.0397828
0002d0 96 12 bc bb c2 f5 0b be 72 58 b3 3d 13 7b 0f be
       -0.0057395203 -0.13667968 0.08757104 -0.14011793
0002e0 76 c1 86 3d ed f4 10 be e2 4a 12 3c 07 8b 11 3e
       0.065798685 -0.14155932 0.008928986 0.14213191
0002f0 2d 8e d7 bc 30 8c 2d bd a3 db d3 3d 16 ff b0 bd
       -0.026312912 -0.04237002 0.10344627 -0.08642404
000300 e7 66 18 3d 88 61 07 be 82 e2 28 3e aa b9 2f be
       0.03720751 -0.13220799 0.16492656 -0.17160669
000310 49 0c f2 bd e5 01 36 3e 33 13 93 bd 1d ad 0e 3e
       -0.118187495 0.1777416 -0.07181396 0.13933225
000320 35 6e 35 3e 63 64 42 3e a6 70 1c 3d d0 80 ac bd
       0.17717822 0.18983607 0.038193367 -0.084230065
000330 a2 3a d2 3d ce c6 19 be 72 5a 36 3e 72 89 f1 3b
       0.102650896 -0.15017244 0.1780794 0.007371121
000340 ca 84 1d 3d 6f 1e dc bd a6 8f 28 3e b5 cf 97 bd
       0.038456716 -0.10747992 0.16461048 -0.07412664
000350 bb 77 29 3e 08 a2 88 bd 36 d2 11 be a8 c7 98 bd
       0.1654958 -0.0667153 -0.14240345 -0.074599564
000360 09 c4 1b be c6 46 38 3e 1a 30 83 3e 24 43 80 be
       -0.152115 0.17995748 0.25622636 -0.25051224
000370 00 ca e1 3b 7b 91 38 be 01 de f5 3c c0 df 11 be
       0.0068905354 -0.18024246 0.030013086 -0.1424551
000380 54 e2 b9 bd b4 8e ea bd 9a e7 2e be 77 d5 11 be
       -0.09076372 -0.11453 -0.17080536 -0.14241587
000390 86 8e f7 3d aa c6 3b be 88 74 be bd 6b f7 bd bc
       0.12087731 -0.18337503 -0.0929957 -0.023189267
0003a0 9a 21 eb bd 80 87 33 3e e9 0d 17 3d c4 d5 a8 3d
       -0.11481018 0.17532158 0.0368785 0.082438976
0003b0 3e 0c 3b 3e b1 50 0e 3e 52 31 03 be b2 0a 91 3c
       0.18266389 0.13897969 -0.12811783 0.017705295
0003c0 74 90 a0 bb af 9e ab bd f9 da 91 bc e6 12 27 be
       -0.0049000327 -0.08379876 -0.01780461 -0.16315803
0003d0 94 76 74 be c2 4b 05 3f 46 8f 46 be d6 a8 74 bd
       -0.23873359 0.5206872 -0.19390592 -0.059731327
0003e0 03 62 7b bd 5e db 13 3e e8 37 af 3d c7 f4 f2 3d
       -0.061372768 0.1443915 0.08555585 0.11863094
0003f0 fb 34 d6 3d 38 23 1d be 22 be 3c 3e fe 02 ff bd
       0.10459324 -0.15345466 0.18431905 -0.124517426

convs.0.lin_l.bias f4 [64]
000000 02 d1 61 be 7c 75 6e 3e d1 c4 28 3d 32 85 44 be
       -0.22052386 0.23287004 0.041203324 -0.19191435
000010 12 4f f1 bc 98 99 3b be 39 0d 3b be 3d a9 7d be
       -0.029456649 -0.1832031 -0.18266763 -0.2477159
000020 3f 44 be 3b 53 5b 23 3e 46 92 69 3e 9b 2f 05 3e
       0.0058064754 0.15952806 0.22809705 0.13006441
000030 ff 95 cc bd a6 e7 0d 3e 3b 7e 58 3d 28 5a 65 be
       -0.09989547 0.13857898 0.052854758 -0.22397673
000040 c5 45 f0 3d 3b e5 a4 3d 55 24 c9 bd d8 40 10 3e
       0.117320575 0.08051535 -0.09821383 0.14087236
000050 85 dc 04 3e 7f 14 47 be 0b 84 6f bd 5b 33 f7 3d
       0.12974747 -0.19441412 -0.058475535 0.12070342
000060 f3 dc 17 be 62 19 aa 3d 68 53 3a be 2f b4 85 3e
       -0.14830379 0.08305623 -0.1819588 0.26114032
000070 d8 21 9a bd a9 e0 5b 3c 11 8d fe 3d 55 f4 0e be
       -0.075259864 0.013420262 0.1242925 -0.13960393
000080 9e 9a 52 3e 32 47 72 be 4f f2 56 be fc 36 61 be
       0.20566794 -0.23659971 -0.20990871 -0.21993631
000090 90 26 cf bc c2 3c ce bc 99 1e 74 bd 44 82 99 3d
       -0.025286943 -0.025175456 -0.059599493 0.07495549
0000a0 24 f1 5b be 3a 76 cb 3c 14 83 83 3d bd 9b ca 3d
       -0.21478707 0.024836648 0.064214855 0.09892986
0000b0 37 99 f5 3d a9 d3 14 3e 07 b6 44 3e f5 0a 20 3e
       0.11992114 0.14533867 0.19210063 0.1562918
0000c0 da e7 0a bd f5 28 36 be 4d 05 03 3e 90 29 d2 3d
       -0.033912517 -0.17789061 0.12794991 0.10261834
0000d0 f6 93 93 bc fa 98 27 3d 43 00 a4 3c 2d 96 03 be
       -0.01801489 0.040917374 0.020019656 -0.12850256
0000e0 91 1f 88 3d c3 80 7d 3d c3 9a 3b be 6d 01 e1 bd
       0.06646646 0.061890375 -0.18320756 -0.109866
0000f0 4b c4 c8 3d 43 1a d2 bd b9 ea 0e be 3a bf c7 3d
       0.09803065 -0.10258915 -0.13956727 0.097532704

convs.0.lin_r.weight f4 [64, 27]
000000 e4 51 a1 bd bf 5a ce 3d 42 f7 7c 3d ea b0 b5 3d
       -0.078769475 0.10075902 0.06175924 0.08871634
000010 35 82 0a be ed 7b 38 3d a1 3f 14 3e 3a 85 ee bd
       -0.13526233 0.04504006 0.14477398 -0.11646505
000020 24 53 ca 3d 1f ee 41 3e c0 ed 31 3e ed 81 68 3d
       0.09879139 0.18938492 0.1737585 0.056764532
000030 5d 80 c8 bb 78 63 f4 bd 7f 45 19 be 62 29 74 bd
       -0.0061188177 -0.11933035 -0.14967917 -0.05960978
000040 36 c0 06 be 16 be 07 3e f0 07 6f 3d c9 47 fa 3d
       -0.1315926 0.13256106 0.05835718 0.12220723
000050 c7 52 e1 3d 13 eb 6b 3c f6 73 43 be ff a5 7b 3d
       0.11002117 0.014399308 -0.19087204 0.061437603
000060 da 22 99 3a 7d 73 21 be 12 bd 37 be 56 a1 09 be
       0.001168336 -0.15766712 -0.17943218 -0.13440451
000070 04 b6 6c be a4 b8 25 3f 56 1f a5 3e 52 bc 18 be
       -0.23116308 0.64734864 0.3225047 -0.14915588
000080 4d dc 41 be 12 94 16 3f 73 4c 8b bd 38 4b 22 be
       -0.18931694 0.5881969 -0.06801691 -0.15849006
000090 82 77 44 be df e7 be 3d fa 25 6e 3d 77 26 68 bd
       -0.19186214 0.0932157 0.058141686 -0.056677308
0000a0 77 9a 3d bd cf ef ae 3d 71 66 1c 3e ca e2 bd 3d
       -0.046289887 0.085418336 0.15273453 0.09271772
0000b0 79 46 28 3e 7a 59 24 3e 2b 5a 0e 3e ab ca a7 bc
       0.16433133 0.16049758 0.13901584 -0.020482382
0000c0 f0 39 82 bc 36 28 28 3e d4 80 a0 bd 63 9f 18 3e
       -0.015896767 0.1642159 -0.07837072 0.14904551
0000d0 70 6e 00 be ad fc d1 3d b9 5e 1a be 47 aa db 3c
       -0.12542129 0.10253272 -0.15075196 0.026814593
0000e0 a0 c7 b2 3e ab 6d 16 be 24 b9 2b be 56 7c e1 bd
       0.34917927 -0.14690273 -0.16769844 -0.11010043
0000f0 37 c0 2c 3d 9a 1f 19 3e 9c e8 ef 3d db cb d5 3d
       0.042175498 0.14953461 0.117142886 0.10439273
000100 92 45 d6 3c 93 5e fd 3d 25 5c 43 3e f4 65 f0 bd
       0.02615622 0.12371554 0.19078119 -0.11738196
000110 09 dd 36 3e ce df 02 3d 38 cd 21 be d9 50 cb 3c
       0.17857756 0.031951718 -0.15800941 0.024818825
000120 34 4a b8 3d 91 a2 25 3e 5c 0d 90 3d 93 53 02 be
       0.08998528 0.16175295 0.07033798 -0.12727194
000130 77 e8 9b bc 56 43 ec 3d 92 6f b2 3d bb 9b 55 bd
       -0.019031746 0.11536281 0.087126866 -0.05215047
000140 ae a5 13 be fb f0 01 be a2 f3 22 be 0a 03 2c be
       -0.1441867 -0.12689583 -0.15913251 -0.16798034
000150 f8 93 44 bc 3b 19 02 3e b9 b3 9b 3d bf 07 0f 3c
       -0.011998169 0.12704937 0.07602639 0.008729874
000160 4e f9 c6 bb 64 42 ab bd 5a d6 3c be 89 09 66 3d
       -0.0060722 -0.083622724 -0.18441144 0.056161437
000170 69 6f d2 3d 9c 01 92 bd 21 25 0e be 94 2c ee bd
       0.10275156 -0.07129213 -0.13881351 -0.11629596
000180 3a 41 8d bc 05 72 97 3d 04 8f 3b be ae dc bd 3d
       -0.017243017 0.073947944 -0.18316275 0.09270607
000190 7d 54 cc bd 29 40 7e bc 95 4c fa 3d b4 0a 92 bb
       -0.09977052 -0.015518227 0.12221638 -0.0044568423
0001a0 3c f4 e7 3c 89 ce cf bd 24 62 11 3e c3 81 c5 bd
       0.028314702 -0.10146815 0.14197594 -0.09643891
0001b0 46 e4 3a 3e 6b 47 11 bf 0d 3c 37 bd a5 12 b4 3d
       0.18251142 -0.567496 -0.044735003 0.08792619
0001c0 01 52 eb 3d 20 98 4a 3d 04 79 29 be 30 54 20 3e
       0.114902504 0.049461484 -0.1655007 0.15657115
0001d0 0d e7 03 be 08 04 0e 3e 77 f8 df bd 2a 01 02 bd
       -0.12881108 0.13868725 -0.10936063 -0.03173939
0001e0 61 5a bf 3d 31 14 66 3d 35 7b d5 3b b8 13 d0 bd
       0.0934341 0.0561716 0.0065149316 -0.10160011
0001f0 fa ee c3 3d 5e df de bd 19 30 11 be 74 a7 3f be
       0.095670655 -0.10882448 -0.14178504 -0.18716222
000200 6f 02 a3 bd 2f e5 8f 3d 12 70 8e 3d 26 c4 97 3d
       -0.079594485 0.07026135 0.069549695 0.07410459
000210 ea 5f 27 3e e1 45 f6 3c a9 27 35 3c 73 3d 21 be
       0.16345182 0.030062618 0.011056819 -0.15746097
000220 70 0e ba bd 9c 8e 01 be 2e b7 82 bc 66 7f 39 3e
       -0.09084785 -0.12652057 -0.015956488 0.18115005
000230 46 63 e7 bd 9f 19 3a 3d d9 4a d4 bc 1e d1 bb 3d
       -0.11298232 0.04543459 -0.025914596 0.09170745
000240 8d 33 1b 3e 7c e9 b9 bb e7 b8 31 3e ed b3 31 be
       0.15156384 -0.0056735855 0.17355691 -0.17353792
000250 75 e9 23 bd 3a 83 c6 3d 04 60 09 3d 8b a5 a1 bd
       -0.040017564 0.09692998 0.033538833 -0.07892903
000260 65 77 3c 3e bd da 15 bd 0a fd 19 be 6d ec e1 3d
       0.1840492 -0.03658556 -0.15037933 0.11031423
000270 43 86 fe bd 1d 9c 30 be 35 7d 0c 3e f4 5c 88 bc
       -0.12427952 -0.17247052 0.13719638 -0.016645886
000280 24 1a 60 3c 97 1a 2b 3e f4 42 81 3d 9c 68 2f be
       0.013678107 0.16709362 0.063115984 -0.17129749
000290 05 54 b5 3c 55 19 f5 bd c3 bc 81 3d 09 83 81 bd
       0.02213479 -0.11967722 0.063348316 -0.06323821
0002a0 89 5d bc 3d a6 39 df bc db 2e 28 be ba 69 c1 bd
       0.09197528 -0.027249169 -0.16424124 -0.09443994
0002b0 7c 11 c0 3d 19 c1 8b 3d 4f a3 8a 3c 16 3c 2f be
       0.09378335 0.0682394 0.016923575 -0.17112765
0002c0 02 21 a5 3b 5d 4c 25 3e 4e a7 1e be a6 fa 69 3d
       0.005039335 0.16142412 -0.15493509 0.057123803
0002d0 ac 60 dc bd 06 28 f2 ba e4 6b e1 3b df 9a e6 3d
       -0.10760626 -0.0018475063 0.0068793166 0.11260008
0002e0 5d fc 63 3d 8c c0 ea 3d dc 51 d2 bd bd a4 06 be
       0.055660594 0.11462507 -0.1026952 -0.1314878
0002f0 f3 8d 2c 3e d1 16 fa bd 8f 7b 5d 3d 9f b2 01 bd
       0.16851024 -0.12211383 0.054072913 -0.031664487
000300 1c f9 6e 3c 72 51 3c bd 76 df d3 3d 6a 97 50 bc
       0.0145857595 -0.04597611 0.10345356 -0.012731412
000310 dc 34 ff bd 00 24 35 be 4c 48 87 bd 24 eb 11 3c
       -0.12461254 -0.17689514 -0.066055864 0.00890616
000320 90 58 1f bd cd a1 1d bd ed 95 ed bb fb 8f 05 be
       -0.03890282 -0.038484383 -0.0072505386 -0.13043205
000330 2c 96 26 bd ea de 6d bd 81 f0 02 3e 2a 44 e5 bd
       -0.04067056 -0.058073916 0.12787057 -0.11194642
000340 35 34 1c 3e 30 46 79 3d f7 69 36 be b5 63 ae 3c
       0.1525429 0.06085795 -0.1781386 0.021287778
000350 9d d4 77 bd 1f 79 01 3e 96 f9 28 be bb da 37 3e
       -0.0605055 0.1264386 -0.1650146 0.17954533
000360 24 4a a4 be d8 10 f3 3d 02 ae 85 bd 22 d7 38 3f
       -0.32087815 0.11868447 -0.0652733 0.72203267
000370 ef ce a8 bd 4b a8 dd 3c 6d c3 1c bc b0 69 01 3e
       -0.082425945 0.027057787 -0.0095680775 0.12637973
000380 f6 18 8f bd 65 e4 de bd 08 ff cf 3d 99 db 3e 3e
       -0.06987183 -0.108834065 0.10156065 0.18638457
000390 fa 30 36 bd bb 12 ee bd eb 57 25 be 5f 47 03 be
       -0.0444803 -0.11624666 -0.1614682 -0.12820195
0003a0 23 72 d1 3b a9 66 86 3d 91 dc 31 be 90 7f 03 bd
       0.00639178 0.065625496 -0.17369296 -0.032104075
0003b0 63 4f ec bd 03 d7 0b bd 57 be a9 3d ef 1b 81 3d
       -0.11538579 -0.034140598 0.082882576 0.06304156
0003c0 22 a8 95 3d 18 4e e2 3d 1a 27 1b 3e d3 dc f4 bd
       0.073074594 0.110500515 0.15151635 -0.119561814
0003d0 00 3c 17 3e af 1a 96 3e 49 d8 8d be a8 66 c2 3d
       0.14768982 0.29317233 -0.27704075 0.094922364
0003e0 01 9f 31 be 39 e6 ba 3f 8d 76 f7 3d 75 d5 3f 3e
       -0.17345811 1.4601508 0.12083159 0.18733771
0003f0 68 ef 16 3e 63 50 2a bd 9a 49 02 3e 44 e9 a7 bd
       0.14739764 -0.04158057 0.1272339 -0.08198789

convs.1.lin_l.weight f4 [64, 64]
000000 cc d8 c5 3d 0c 7b ca bd 6e a6 a8 be 7c 0e f4 bd
       0.09660491 -0.098867506 -0.32939476 -0.11916825
000010 42 8b 76 3e 5e 5b b5 bd 50 4a 6c bd 2e 94 fc bc
       0.2407656 -0.088553175 -0.057688057 -0.030832376
000020 74 84 da be 4a b0 2a 3e 57 7c f7 3e 4b b4 7c 3d
       -0.4267918 0.16668811 0.4833705 0.06169538
000030 87 54 c4 3d 9a ad 0f bd ab e7 09 be bb 2a 9a bd
       0.09586435 -0.03507767 -0.1346728 -0.075276814
000040 63 45 56 bc f1 88 b3 bd 19 82 f9 be 1c ef f2 bd
       -0.0130780665 -0.08766354 -0.4873207 -0.11862013
000050 6e 1d 2f be d2 10 bb 3b 8f bd 1d be 8d 33 e4 3d
       -0.1710107 0.0057087922 -0.15404342 0.11142645
000060 d8 c3 4a 3d 2f 80 33 bd 4e 24 99 3d 48 eb b0 3e
       0.049503177 -0.043823417 0.07477628 0.34554505
000070 f8 92 00 3e 49 a3 ae be 57 15 be 3d c7 5a d4 bc
       0.12556064 -0.34108952 0.09281414 -0.025922192
000080 41 6d a0 bd c2 9f c9 3d ef f2 5b bd dd ba 79 ba
       -0.078333385 0.098449245 -0.053698476 -0.0009526441
000090 d0 72 30 3f d0 c6 02 3c 42 49 2d be 4e 5b b6 bd
       0.6892519 0.007981971 -0.16922477 -0.08904134
0000a0 cb 2f 75 3d af e7 a4 be 55 cf 9e 3d d6 dd 0d bd
       0.059860032 -0.3220801 0.07754389 -0.034635387
0000b0 55 2c bc 3c 31 54 f7 3e ea 74 20 be a2 0e 73 3d
       0.022970358 0.4830642 -0.15669599 0.059340127
0000c0 d6 0c 92 be 32 92 25 3d 32 34 14 be 05 55 40 3d
       -0.28525418 0.040422626 -0.14473036 0.04695608
0000d0 53 a0 be bc be a8 c1 bd 3f ef 9b 3d 58 ed 74 3d
       -0.023269808 -0.09456013 0.07613992 0.05979666
0000e0 72 fc ef bc 10 9f ad bd 2a 68 b8 3d 0d d2 82 bd
       -0.02929518 -0.084776044 0.09004243 -0.0638772
0000f0 ee 1b 66 3d 1e 83 36 3d 8c f1 56 3a 84 ab 3d 3e
       0.05617898 0.044558637 0.00081994454 0.1852246
000100 fc 70 c4 3d 54 75 c6 3d dd 9d 39 3e 28 17 5a bd
       0.095918626 0.09690347 0.18126626 -0.05324474
000110 82 70 36 be 7f 3d d4 bb 14 eb bb 3d 88 52 1a be
       -0.17816356 -0.0064770575 0.09175697 -0.15070546
000120 49 4e f6 bb bb 20 40 be 61 f0 25 bf a5 6e e4 bd
       -0.0075166565 -0.18762486 -0.64819914 -0.11153916
000130 da bd 2f bc 7d 22 1c 3e 11 0b 15 be 65 c8 21 3d
       -0.0107264165 0.15247531 -0.14555003 0.03949775
000140 64 3d fd bc 1c 93 4c bd 93 be 94 bc 1c 48 f2 3d
       -0.030913062 -0.049944982 -0.01815728 0.1183016
000150 c4 28 f8 bb e5 7b fe bd 39 6f 84 bd f4 8b 18 bc
       -0.007573219 -0.12425975 -0.064665265 -0.009310711
000160 44 eb 2a 3e 11 08 e9 3c 52 97 d3 bd a2 16 a9 bd
       0.16691309 0.02844623 -0.103315964 -0.0825627
000170 ac e4 35 3c fa c6 d2 bd cd 83 7a bb 6c ab 90 bd
       0.011101883 -0.10291858 -0.0038225532 -0.07063946
000180 b7 f5 f1 bd 86 50 96 bb 87 81 6e 3d f9 f4 5d 3e
       -0.118144445 -0.004587236 0.058228996 0.21675481
000190 7f 6f 94 be d0 18 8d bd 39 56 64 3c 33 15 f9 3c
       -0.28991315 -0.06889498 0.013936573 0.030405616
0001a0 ee e1 39 3e 96 fc 22 bf 1a 3a 5a 3c 38 09 0e be
       0.18152592 -0.63666666 0.013319517 -0.13870704
0001b0 e4 bf 52 bd d2 9e af be 24 55 c5 bd da e9 2c 3d
       -0.051452532 -0.34300858 -0.0963538 0.042215206
0001c0 3b 6a 76 3c e7 2b 22 3e 1c 7d bf bd d3 e9 e6 3c
       0.015039976 0.1583706 -0.093500346 0.028187668
0001d0 ab 59 6f 3a 38 6e e7 3d 21 14 d4 bd 0a 7e 9b 3d
       0.0009130488 0.113003194 -0.10355402 0.075923994
0001e0 00 75 44 be d0 26 86 3c 58 41 90 3c 85 4e de bb
       -0.19185257 0.01637593 0.017609283 -0.0067842626
0001f0 04 1c ae 3d c5 ff 9a 3c f2 8d 10 3d 38 1b a9 3e
       0.08501437 0.018920789 0.03529162 0.3302858
000200 66 bb 81 bd 93 65 e1 3b 2b 8b fd bc 88 7f 4a 3d
       -0.063345715 0.0068785637 -0.03095015 0.04943803
000210 df e0 d3 3b 80 09 a9 bd 00 8e d2 b9 fc de 3c 3d
       0.0064660157 -0.08253765 -0.0004016012 0.046111092
000220 d8 65 84 3d 6e c6 e9 bd 58 d0 8b 3d bc 5a e7 bd
       0.06464738 -0.114148006 0.06826848 -0.11296603
000230 2e b1 82 bd 9d 89 34 3c 43 e3 27 3d 94 4f 0f bd
       -0.063814506 0.011019138 0.040988218 -0.034988
000240 ab 87 a1 bd b5 f0 41 3d f6 14 a8 bd 0a e7 3c be
       -0.07887205 0.047348697 -0.08207123 -0.1844751
000250 f9 0f b3 bd 7c 20 fe 3d 59 73 2f be a3 06 e4 bd
       -0.08743281 0.1240854 -0.17133845 -0.11134078
000260 78 91 aa bc 9c ca 9b bd 82 64 aa bd bc b0 38 be
       -0.020821318 -0.07607004 -0.083199516 -0.18036169
000270 d1 d1 af bd 3b 9f 96 bd 2f ad 04 be 91 5a 9f bd
       -0.08584941 -0.073545896 -0.1295669 -0.07780946
000280 38 92 bd bd 46 5b a7 3d 3a f8 a0 3d e1 00 aa bd
       -0.09256405 0.08171706 0.078598455 -0.08300949
000290 00 86 e9 3c a8 41 1b 3d dc 22 0b bd 15 79 18 be
       0.028506279 0.03790441 -0.03396879 -0.14889939
0002a0 77 81 1b bc c4 c4 88 bd ea e0 42 3d b4 1e 14 bd
       -0.009491316 -0.06678155 0.047577776 -0.036162093
0002b0 90 5a 0c be 50 00 96 bd 4d 30 98 bd 51 91 2b be
       -0.13706422 -0.07324278 -0.07431088 -0.16754653
0002c0 43 d6 07 bd 78 24 a4 bd 9c b7 33 3d 71 28 f9 bd
       -0.03316332 -0.08014768 0.043876275 -0.12165917
0002d0 10 a0 62 bc 78 b3 c6 bd 5c 4c 3a be 64 c4 af 3d
       -0.013832107 -0.097022 -0.18193191 0.085823804
0002e0 e3 c4 fe bd 29 da e1 3b 64 00 77 3d 58 82 39 bd
       -0.12439897 0.006892462 0.060303107 -0.04529032
0002f0 e0 e8 c8 bc 99 c6 5b bb d8 5b ec bc e6 b7 83 3d
       -0.024525106 -0.0033535121 -0.028852388 0.0643156
000300 dc 47 06 bd 34 24 c0 bd dc 3b 21 3d b0 5b 0a bc
       -0.032783374 -0.09381905 0.039363727 -0.008444712
000310 28 1e 3c 3d b5 4b 84 bd 7a 3f d1 3d 0c 8c 2c 3d
       0.045927197 -0.064597525 0.10217185 0.042125747
000320 1c 5c 3c bc 62 d3 3f 3c 61 4d 02 be b3 ac b1 bd
       -0.01149657 0.011708112 -0.1272483 -0.08675518
000330 1e 35 94 bd 1a be 1d be 28 ad b0 bd 26 bb 27 bd
       -0.07236694 -0.15404549 -0.08626777 -0.040949963
000340 68 06 22 be 2f 52 1d 3d ce a3 fa bc 05 97 0e be
       -0.15822756 0.038408455 -0.030595686 -0.13924797
000350 98 24 17 be 44 f4 b5 bd c8 8e 72 bd 61 25 d8 bd
       -0.14760053 -0.088844806 -0.059218198 -0.105540045
000360 f4 09 2e bd 55 e7 75 3c 88 3e d5 3c 9d a6 38 3d
       -0.04248996 0.015008767 0.026030794 0.04508077
000370 4e 11 04 be 80 5d 61 bd c4 b4 d1 bd b2 67 55 3b
       -0.12897226 -0.05502081 -0.102395564 0.0032563028
000380 1f 88 26 bd fa 85 e4 bd 30 ac e9 bd dd 4f d0 bd
       -0.04065716 -0.111583665 -0.11409795 -0.10171483
000390 90 00 20 3c 60 71 36 bd 35 29 da bc d6 fa 67 3c
       0.009765759 -0.044541717 -0.026630977 0.014158925
0003a0 94 47 71 bd b2 7b 16 bd dd 09 a6 bd fd 4c 0c be
       -0.058906153 -0.03673906 -0.0810735 -0.13701244
0003b0 9b 47 f6 bd 6e 70 8a 3d 9f 66 31 3d 54 97 11 bc
       -0.120253764 0.067597255 0.043310758 -0.008886177
0003c0 a6 7c 10 ba 29 ac 35 bd 70 d7 b9 bc 77 58 36 be
       -0.0005511738 -0.044353638 -0.022685736 -0.17807184
0003d0 5e 69 0c 3c 7e 12 76 bc f4 5a aa bd f8 43 bc 3c
       0.008570043 -0.015019057 -0.08318129 0.022981629
0003e0 ab ec 18 be f6 c7 c1 3a fa e6 2e be f3 b5 7f bd
       -0.14934032 0.0014784324 -0.17080298 -0.06242938
0003f0 b6 2c fa 3d 9e dc 41 be 40 ac 8f bd 7c 8c c8 bd
       0.12215559 -0.18931815 -0.07015276 -0.0979242

convs.1.lin_l.bias f4 [64]
000000 09 a1 c4 bc b2 56 2f 3d 50 88 05 be 1e 42 01 bd
       -0.024002569 0.04280729 -0.1304028 -0.031557195
000010 b8 3d be 3c 7a b0 9c bd 5c 09 18 bd c2 61 9b bd
       0.02322279 -0.07650848 -0.0371183 -0.07587005
000020 6e 91 32 bd b1 6e 03 3d 83 77 5e bc 2d 74 b4 bc
       -0.043595724 0.032087985 -0.0135782985 -0.022028053
000030 ca 83 69 3d 06 87 a0 bc 13 aa e0 3d 38 04 00 be
       0.05701045 -0.019595634 0.10969939 -0.1250161
000040 c6 94 38 be aa b0 ec bd 02 aa ba be ca c2 ed 3b
       -0.18025503 -0.115571335 -0.3645783 0.0072558867
000050 55 e2 00 bd 7b 45 09 be 59 df 63 bd 99 22 42 bd
       -0.031465847 -0.13405411 -0.055632923 -0.047396276
000060 f8 2c 11 3d 54 3a 16 be b8 97 59 bd b3 4a 07 bd
       0.035443276 -0.14670688 -0.053123206 -0.033030223
000070 c0 67 50 bd b3 7a 20 bd 7b 8d 92 3a 0e 5c 43 be
       -0.050880194 -0.039179515 0.001118108 -0.19078085
000080 68 92 3f ba 64 26 56 3d 17 67 b5 3d cb 49 24 be
       -0.0007307888 0.052282706 0.088575535 -0.16043775
000090 7a 11 06 3d a2 bb 37 be 47 9c 09 be 48 d4 9a be
       0.03273151 -0.1794267 -0.13438521 -0.30240083
0000a0 89 5d 8d 3d 26 6c 3c 3e d1 4a 37 bd 9b a2 a9 bd
       0.06902606 0.1840063 -0.044749085 -0.08282968
0000b0 4e 21 77 3c 53 f6 61 be 80 2e 2b be 9c ca cd bd
       0.015083624 -0.22066621 -0.16716957 -0.1004841
0000c0 b7 c7 a9 bc ea aa 14 be e9 4c 2c bd ef c6 72 bd
       -0.020725114 -0.14518324 -0.042065535 -0.05927175
0000d0 22 fa 34 be a9 bd c0 3d 4b 85 1b be 72 e1 65 3d
       -0.17673543 0.09411175 -0.15187566 0.056123205
0000e0 9d b7 19 3d 64 9a d3 bd a2 39 2f be 34 1b 1c be
       0.037528623 -0.10332182 -0.17111829 -0.15244752
0000f0 60 4b 42 bd ba fe b8 3d 22 01 3b 3d 01 44 57 3d
       -0.047435164 0.0903296 0.045655377 0.052555088

convs.1.lin_r.weight f4 [64, 64]
000000 28 1e 47 bd cd 6a 5c 3d 48 f5 0b be 20 0a 7a bc
       -0.048612744 0.05381279 -0.13667786 -0.015261203
000010 61 aa 9d 3c 32 31 c9 bd 7c 91 bf 3d 2b 37 11 be
       0.019246282 -0.098238364 0.09353921 -0.14181201
000020 ff 0e 88 be c1 05 11 be 14 32 32 be 15 63 4c bd
       -0.2657394 -0.14162351 -0.17401916 -0.04989918
000030 68 1c 91 3c f7 56 7c 3d 64 a2 36 3d e7 86 bd bc
       0.01771374 0.061606374 0.04458846 -0.023135616
000040 c2 26 b1 bd 76 c2 53 bd 2f b9 34 be f6 94 a2 3d
       -0.086499706 -0.051699124 -0.17648767 0.07938568
000050 8c 73 16 be e1 19 69 bd 19 2b a9 3b ae 49 49 bb
       -0.14692515 -0.056909446 0.0051626083 -0.0030714083
000060 d5 cb 7e 3d 38 37 a6 3d 2a c7 87 bd 2b 6b 71 3e
       0.062206108 0.08116001 -0.066297844 0.23576038
000070 f9 86 93 3d 98 0f 2d bd 00 53 99 bd 47 ad a0 3d
       0.07203478 -0.0422512 -0.07486534 0.0784555
000080 ee dc 86 3d f3 a3 08 bc 0f f0 1f 3e 54 51 e7 3d
       0.06585108 -0.00833987 0.15618919 0.11294809
000090 a6 b7 a7 bd 5c 14 74 bd 63 11 aa 3d 8f d1 ec bd
       -0.08189325 -0.05958973 0.083040975 -0.11563408
0000a0 6c 7f 01 3e 03 98 ba be 96 e6 28 bd de d0 16 3c
       0.12646264 -0.364441 -0.04123553 0.009205071
0000b0 d7 39 40 bc bb 83 f5 bd 32 c6 17 3d 31 a0 c9 bd
       -0.01173254 -0.11988016 0.03705425 -0.09845007
0000c0 75 9b 05 3c 90 5c 3f bd b1 0c 31 3d de 1a 05 3e
       0.00815474 -0.046719134 0.043224994 0.1299853
0000d0 15 2f 8a bb 4c 76 da bd dd a1 a1 3d 9c 1f 46 bd
       -0.0042170384 -0.106670946 0.07892201 -0.04836999
0000e0 e0 9d c3 bd 7d 31 76 bd f6 3f 52 3d 7c 14 00 be
       -0.09551597 -0.06010579 0.05133053 -0.12507814
0000f0 4e 5d 8c 3e 2f 6b a4 bb 0d cc 12 3e 1b 67 f6 3e
       0.27414936 -0.00501766 0.14335652 0.48125538
000100 e8 9d d3 3d 22 4a a8 3e f3 05 3b 3e 30 95 89 3c
       0.103328526 0.3286906 0.18263988 0.016794771
000110 5f 29 34 3e eb d2 3c be 90 0a 24 3c d7 d5 b0 bd
       0.17593907 -0.18439834 0.010012284 -0.08634537
000120 8a 93 24 bf 5b 77 ab 3e 33 46 f6 3e ed b2 3e 3e
       -0.64287627 0.33489498 0.48100433 0.18622942
000130 7e f5 bc 3c cb e3 97 3e c6 a8 6e 3e ca 27 90 3d
       0.023066279 0.2966598 0.2330657 0.07038839
000140 8f f9 3e 3e 7f de 95 bd b4 fb 43 bf e8 fb b3 3e
       0.18649887 -0.073178284 -0.76555943 0.35153127
000150 78 d3 51 3e 5e f8 96 bd 4b a6 17 be 98 e1 03 3e
       0.20490825 -0.07371591 -0.1480953 0.12879026
000160 78 63 55 bc 11 66 ae 3d 52 cd 91 bd cb 0a 23 3f
       -0.0130242035 0.08515561 -0.0711924 0.63688344
000170 d7 df e8 bd 3b bf db be 06 55 3f 3e 2e 0a 64 bc
       -0.11370819 -0.42919335 0.18684778 -0.013918443
000180 1f 60 a2 3e 34 f8 52 3e 45 a3 50 bd 5c f0 a9 3d
       0.3171396 0.20602494 -0.050936956 0.08297798
000190 da b9 d6 3e 64 06 98 3d 87 9f 85 3e fa 23 c0 3b
       0.41938668 0.07423094 0.26098272 0.0058636637
0001a0 d6 df d0 3d 30 a2 89 be 7a d0 67 3e 08 3c 98 3d
       0.10198943 -0.26881552 0.22638121 0.07433325
0001b0 63 87 82 3e 4f a0 f5 3e e8 01 a1 3e d6 80 83 3e
       0.25493917 0.47973868 0.31446767 0.25684232
0001c0 27 b8 8c 3d 02 00 1b 3e 28 91 2c bc 44 88 3a bd
       0.06871062 0.15136722 -0.010532655 -0.04554011
0001d0 52 c4 38 3d ab df d0 be b7 45 a2 bd c4 93 85 bd
       0.0451091 -0.40795645 -0.07923453 -0.06522325
0001e0 8a c4 45 3e d8 ce 37 bd 92 82 58 3d 68 02 a3 bd
       0.19313255 -0.044874996 0.052858897 -0.07959443
0001f0 e2 f6 2b 3f 79 c3 76 bd 98 1a c0 3c 47 f2 15 3f
       0.6717359 -0.06024501 0.02345018 0.5857281
000200 b2 8b 86 bd 22 2f c0 bd 3a f6 86 bd 60 5d f5 bd
       -0.065696135 -0.0938399 -0.06589933 -0.119807005
000210 7c 36 99 3d 90 ce b4 3c 64 5a 22 3d 7e e8 c8 bd
       0.07481095 0.022071153 0.039636984 -0.09809969
000220 de e0 87 bd 3f 21 a2 3c 90 b8 d0 bc 1a 8d d1 bd
       -0.06634687 0.019791244 -0.025478631 -0.10231991
000230 bb a5 a8 3c 24 91 39 bd 45 da 62 3c 7e c5 d2 bc
       0.020586839 -0.045304433 0.013845985 -0.025728937
000240 f1 89 e3 3c 3e be 75 bd 4c c3 ed bd 77 66 6a bc
       0.027775737 -0.059995882 -0.116095155 -0.014306656
000250 a0 6e 87 bd a4 01 d0 3d 5a 88 1f 3d b6 56 11 bd
       -0.06612897 0.10156563 0.038948394 -0.035483085
000260 9c 03 c1 3d b2 39 34 be 8c 16 2d bd a0 25 ad 3d
       0.094245166 -0.17600134 -0.04225783 0.08454442
000270 d0 e9 21 3c 70 e0 d8 3d 66 09 54 3d 10 a3 70 3d
       0.009882405 0.10589683 0.051766776 0.05874926
000280 5a 9a 9c bd 00 68 34 bc 38 25 aa 3d 30 40 a8 bc
       -0.07646628 -0.011011124 0.0830788 -0.02053842
000290 4a 79 93 bd 60 e4 9b bb 7e 15 a4 3a aa f4 c0 3b
       -0.072008684 -0.004757449 0.0012518612 0.005888541
0002a0 80 81 e2 bb b8 8e bf bd 48 ed f5 bc ee b0 0e 3d
       -0.0069124103 -0.09353393 -0.030020371 0.034836702
0002b0 3a 1d 33 3b 38 4c 0c 3d 4e c3 20 be 11 af e3 bc
       0.0027330653 0.034252375 -0.15699503 -0.02779344
0002c0 3b 86 31 bc af a0 e6 bd 81 d3 49 3a c8 b7 ee bd
       -0.010835226 -0.11261117 0.0007699058 -0.11656147
0002d0 46 cd fe bd d0 16 d7 3c a0 3a f0 bd 00 e5 41 3a
       -0.124414966 0.026255995 -0.11729932 0.00073964894
0002e0 71 0e d8 bc 71 fd 08 3d f8 12 32 3d 65 aa 65 bd
       -0.026374074 0.033444826 0.04347512 -0.056070704
0002f0 56 44 8d bd 44 76 be 3d de af e1 bd 10 a3 65 bd
       -0.068978 0.09299901 -0.11019872 -0.05606371
000300 44 c5 e6 bd 18 f1 38 bd 2c 37 8e 3c a0 fe 31 3d
       -0.11268094 -0.0451518 0.017360292 0.04345572
000310 19 b8 51 bd 74 b8 35 be 70 e7 16 3d b2 ef 32 bc
       -0.05120096 -0.17746145 0.03684181 -0.010921406
000320 91 70 e8 bc 69 67 2a bc 24 99 ee 3c af 1e 56 bd
       -0.028373988 -0.010400631 0.029125758 -0.052275356
000330 6a eb 24 be b1 d8 34 be 2d dc c5 bb 3e 9c a6 bd
       -0.16105428 -0.17660786 -0.00603821 -0.081352696
000340 b9 4f cd bd b4 73 09 be ff a4 24 be 7b ec bc 3c
       -0.100249715 -0.13423043 -0.16078566 0.023061981
000350 3b dc f6 bd de c0 e1 3d c9 ab b9 bd 11 e4 a9 bc
       -0.120537244 0.110231146 -0.090659685 -0.020738633
000360 0e a5 8a bd b4 7b cd bd 94 e7 92 bd 1b 09 f5 bd
       -0.06769763 -0.1003336 -0.07173076 -0.11964627
000370 d6 77 1c be 10 2a 21 be 71 d4 39 bd bb d9 19 bd
       -0.15280089 -0.15738702 -0.045368616 -0.03756116
000380 0d 91 e0 bd 6e 5f bd bc ff b3 2c bd d7 bf c8 bd
       -0.10965166 -0.023116793 -0.042163845 -0.098022155
000390 02 25 b6 bd 1c 28 b0 bd bc 7d de bd 69 b8 2c 3d
       -0.088937774 -0.086014 -0.10863826 0.042168055
0003a0 b3 e8 df 3c bc 3a 88 bd f2 51 07 be a6 a7 ac bd
       0.02733264 -0.06651828 -0.13214853 -0.08430414
0003b0 f8 ad 4c 3c 14 7f 86 bd 70 ef 30 bd f3 1d 49 bd
       0.012492649 -0.06567207 -0.043197095 -0.049100827
0003c0 52 85 d7 bd f7 33 0b be 5d 20 73 bd f3 9b d6 bd
       -0.10523476 -0.13594042 -0.059357036 -0.10478964
0003d0 44 85 24 be d9 e4 27 bd e7 65 d3 bc 80 88 92 bb
       -0.16066462 -0.04098973 -0.025805427 -0.0044718385
0003e0 2a d7 5a bd aa 55 86 bd d0 5f 38 3d eb 10 aa bd
       -0.053427853 -0.06559308 0.04501325 -0.08304008
0003f0 54 9b ad 3d 1d ee bb bd 4c d2 ad 3d bd 22 2a bd
       0.08476892 -0.09176276 0.084873766 -0.041537035

convs.2.lin_l.weight f4 [64, 64]
000000 f9 db 3e bd a1 56 88 bd 6c 70 fa 3d fa 99 9b bd
       -0.0465965 -0.06657148 0.12228474 -0.07597728
000010 41 08 09 be 90 65 b5 3d 86 a1 86 bc 6c d1 4d bd
       -0.13382055 0.08857262 -0.016434442 -0.05024855
000020 5c a9 d8 3d ba 97 c1 bd a4 8a 40 3d 78 82 06 be
       0.10579178 -0.09452768 0.047007218 -0.13135707
000030 7e 12 41 bd 90 e6 8e 3d 2c a0 76 bd b7 75 25 3d
       -0.047136776 0.0697757 -0.060211346 0.040395465
000040 20 40 c9 bd b4 c7 71 bd 00 03 0b 3a 40 8b 46 3d
       -0.09826684 -0.059028342 0.0005302876 0.048472643
000050 58 2a f8 bc d6 8e e3 3d 1a 81 d7 bd 56 1c 0e 3d
       -0.030293629 0.11111228 -0.10522671 0.034694992
000060 8e 68 38 be 30 b5 e9 3c 5c 01 ba bd c0 ab 83 bb
       -0.18008634 0.02852878 -0.090822905 -0.004018277
000070 3e 3c c8 3c ee b0 ac bd 82 c5 ef bd ec 77 d2 3d
       0.024442788 -0.08432184 -0.117075935 0.102767795
000080 f6 74 e4 bd 4c 82 df bd ff 78 81 3d cc a4 07 bd
       -0.11155121 -0.10913524 0.06321906 -0.033116147
000090 d0 44 0b 3b 14 0f f1 bd 1c 23 f2 bd 2c 39 df 3d
       0.0021250732 -0.11770454 -0.11823103 0.108995765
0000a0 20 99 08 be d9 37 a2 bc 90 ac 0f 3d 77 8b f1 bb
       -0.13339663 -0.01980202 0.035076678 -0.007371362
0000b0 77 80 f2 bd c0 d1 e8 bd 08 c1 e0 bc e4 10 68 bd
       -0.11840909 -0.11368132 -0.027435794 -0.056656733
0000c0 fc 4f 84 3c c0 dd d6 bd b0 2f b0 3c b8 82 9c 3d
       0.01615142 -0.10491514 0.021507114 0.0764212
0000d0 16 10 d2 3d 29 37 5a 3d 3b 49 9b 3c 77 d6 17 be
       0.102569744 0.05327526 0.018955817 -0.14827906
0000e0 78 c1 06 3d 3f 66 e5 bd 00 cd ff ba 46 6d b0 3d
       0.03289935 -0.112011425 -0.0019516051 0.08614592
0000f0 b0 9c 63 bd fe 90 93 bd e9 f0 23 be 1d 05 b5 bd
       -0.05556935 -0.072053894 -0.16009869 -0.08838866
000100 13 96 aa bd 1b 2b 45 3d 78 bf 08 3d ba 6e f8 3d
       -0.08329406 0.04813681 0.033385724 0.121304944
000110 47 ea 81 3c 80 e7 5e bd 1f 22 34 3d 00 6d 65 bd
       0.015858782 -0.054419994 0.043977853 -0.056012154
000120 ac fe 77 3d 01 4e d7 bd 66 04 c8 bc ac 6b 1c bd
       0.06054561 -0.10512925 -0.02441616 -0.03818862
000130 80 3d f9 bc a0 28 46 bd 5b 25 8b bd 88 a5 f1 3c
       -0.030424833 -0.048378587 -0.06794234 0.029497877
000140 d0 e6 b6 3d 68 cb 82 3d 18 0c 4b bd 8a 10 bc 3c
       0.08930743 0.06386453 -0.04957208 0.022957105
000150 46 a7 aa 3d d0 a1 2d bd d0 02 10 bd 99 f9 4a 3d
       0.08332686 -0.042390645 -0.035158932 0.04955444
000160 ec 82 1e be 25 ef 9f bd 40 1d 58 3d cc 55 15 bd
       -0.1547963 -0.07809285 0.05276227 -0.036458775
000170 73 f2 fc bd 5c a7 45 bd c9 3d 50 bc 40 b8 0c bc
       -0.12350931 -0.04825531 -0.012710043 -0.0085888505
000180 cc 06 39 be 8e e1 88 3d d1 25 3a be ce 57 8c 3d
       -0.18068999 0.06683646 -0.18178488 0.06852685
000190 d2 d6 26 bd 4c 55 a0 bd c0 c2 5d bc 78 6a b3 3d
       -0.040732212 -0.07828769 -0.013535202 0.08760542
0001a0 f6 92 48 bd a9 0b c5 bc 90 5b 71 3d b4 96 36 bd
       -0.048968278 -0.024053412 0.05892521 -0.044577315
0001b0 b4 0e c8 3d fc 56 89 3d d5 02 16 be c0 f5 bc 3c
       0.097684294 0.06706044 -0.14649518 0.023066401
0001c0 fd 64 a0 ba 40 8c fa 3c 0b 69 8e bd a4 c0 99 bd
       -0.0012237128 0.030584455 -0.06953629 -0.075074464
0001d0 48 d7 9d 3d 23 22 23 3d b4 0b 75 3d 2b b6 c5 bd
       0.07707077 0.039827477 0.059825614 -0.096538864
0001e0 26 73 92 3c 84 1e 6d bd 20 1c 5b bc 4e 26 8e bd
       0.017877173 -0.05789043 -0.013373405 -0.069409
0001f0 6e d8 bc 3d 61 75 57 3c 76 75 2c be 42 39 95 bd
       0.09220968 0.013150544 -0.16841683 -0.07286312
000200 48 50 e9 bc 8c 89 5c be 91 a7 ac bc 42 0b 23 3d
       -0.028480664 -0.21536845 -0.021075996 0.03980566
000210 33 74 a2 3b 4c 68 26 3e 49 f8 15 3d 30 29 89 bd
       0.0049576997 0.16250724 0.036613736 -0.06697309
000220 94 2a ec 3d 86 d0 99 bd 71 94 4d bd 15 52 85 bc
       0.11531559 -0.07510476 -0.050190393 -0.016274491
000230 39 1b 07 bb 4e 8f 59 3d 36 7e 91 3c 71 f6 16 3d
       -0.0020615591 0.05311518 0.017760377 0.03685612
000240 c6 75 c5 bc 18 71 85 bc a9 b7 61 3e 58 6e 27 3d
       -0.02410401 -0.016289279 0.22042717 0.040876716
000250 dd 98 19 3e 11 21 30 3d 9e 3a 5f bd 7f 43 4d 3c
       0.14999719 0.043000285 -0.05449926 0.012528299
000260 10 5c be bb 69 9f dd 3d 77 5d ff 3c 95 87 26 3d
       -0.0058093145 0.10821421 0.031172497 0.040656645
000270 99 57 ef bd b7 41 a1 3d ff a0 1a be b0 ac f7 bd
       -0.1168663 0.07873862 -0.15100478 -0.120934844
000280 4d 0e 77 3c dd c7 3a 3e 74 60 58 be bc 3d 9d 3c
       0.015079093 0.18240304 -0.21130544 0.019194476
000290 ce a6 eb bd d2 de 0c be 8b 7e 08 bd 82 ab e8 3c
       -0.11506425 -0.13756874 -0.033323806 0.028402094
0002a0 21 89 d0 bd 03 02 a9 bd 06 dd 17 3d 16 75 df 3d
       -0.10182405 -0.08252337 0.03707602 0.10911004
0002b0 d3 9a 92 3c bc 3a 1f 3e eb b6 29 be 9e 94 90 bb
       0.017896092 0.15549749 -0.16573684 -0.004412248
0002c0 05 be 77 bd 11 6b 04 3e 65 f6 fa bd 88 a6 ab 3c
       -0.06048395 0.12931468 -0.12254027 0.020953432
0002d0 a0 4a 45 3d 33 0c 2a 3d e2 91 c9 3d 6f 40 43 bd
       0.04816687 0.04151554 0.09842278 -0.04766887
0002e0 95 3b 25 bd 44 57 9d 3c 3c f2 e4 3d 52 2c 47 bd
       -0.040340025 0.01920665 0.11179015 -0.04862625
0002f0 73 18 94 3d ab f7 04 3d d8 e4 82 bc db fd 26 bd
       0.07231226 0.032462757 -0.015978262 -0.04076944
000300 c6 25 51 3d c5 47 0d be 68 07 28 bd 63 fc 45 3d
       0.051061414 -0.13796909 -0.04102269 0.048336398
000310 78 c8 de 3c a4 f7 49 bd a7 5d d1 bc 49 9e bc bb
       0.0271952 -0.049308434 -0.025557352 -0.0057561737
000320 54 ca 59 bd e7 89 2f 3d f9 7d a6 bd fb 95 d4 3d
       -0.05317147 0.042856123 -0.08129496 0.10380169
000330 e3 29 cf bd 16 3d b4 3c 36 27 53 be 9c 83 94 3b
       -0.10115411 0.022001784 -0.20620427 0.0045322906
000340 ff c1 2d 3e 98 ee 90 bc 56 c8 56 3e 09 24 8a 3c
       0.16968535 -0.017691895 0.2097486 0.016862886
000350 62 c1 29 bb 57 01 f0 3c 9c d7 10 3d e0 29 06 bd
       -0.0025902619 0.029297514 0.03536187 -0.03275478
000360 c6 eb 96 bd cf 62 20 3e 5d d9 9c 3c 0a 58 4d 3b
       -0.07369189 0.15662692 0.019146616 0.0031332993
000370 34 a1 16 3d f1 47 ff 3d b9 6a 25 be 59 e7 3b 3d
       0.03677483 0.124648936 -0.16153993 0.045874927
000380 3e 38 69 3d cf b3 24 3e 0d 87 73 be d4 e6 d7 3d
       0.056938402 0.16084217 -0.23781987 0.10542074
000390 6c 47 d0 3c 85 a6 4c bd 66 5a 8d bc ed ba 29 3e
       0.025424682 -0.049963493 -0.01725502 0.16575213
0003a0 76 39 68 3d bd 53 fe bc 3f e7 19 3e 6a 43 30 3d
       0.056695424 -0.031045789 0.1502962 0.04303304
0003b0 19 08 ab bd 15 47 7e 3c 6c 8b 22 be d2 2c f9 bb
       -0.08351154 0.015519877 -0.15873498 -0.00760422
0003c0 bc a6 fb bd 86 63 df bc cd 23 1a 3d be 9b 1f 3e
       -0.122876614 -0.027269136 0.0376318 0.15586755
0003d0 17 ad b5 3b 40 60 c0 3d 84 30 29 bd e2 5c d0 bd
       0.0055443156 0.09393358 -0.041306034 -0.10173966
0003e0 8f 54 b9 bd 4f bc de bc 30 0a a4 3d 60 06 27 3c
       -0.090493314 -0.027189402 0.080097556 0.010194391
0003f0 38 89 06 bd 9e da a1 3d 6c 88 1f bc 83 0d ea 3c
       -0.032845706 0.07903026 -0.009737115 0.028570896

convs.2.lin_l.bias f4 [64]
000000 9a 42 2d be 7d 63 e7 bd 39 ed b2 3a a2 e2 2a 3e
       -0.16919938 -0.11298273 0.001365102 0.16688016
000010 2a 00 50 bd 1f fe 03 3e 31 6a 02 3e d8 c0 9b bb
       -0.050781406 0.12889908 0.12735821 -0.0047532134
000020 ab 7e 01 3b 2c 8e a9 3d fb 14 27 be 1a 26 ef bd
       0.0019759338 0.0827907 -0.16316597 -0.11677189
000030 f7 01 fe bb 0a 01 d3 bd 92 ed 3f bd 94 5b 17 3e
       -0.007751699 -0.103029326 -0.046857424 0.14781028
000040 c6 a9 18 3d 1c 2b 9f bd 77 87 eb 3d 33 d7 09 be
       0.037271284 -0.07771894 0.11500447 -0.13460998
000050 d0 46 ec 3d 52 7d 92 bc 82 84 10 3f f1 93 1f be
       0.11536944 -0.017882023 0.5645219 -0.15583779
000060 4d 2a 7b be 5b c7 a2 3e 81 86 00 3e be d9 e0 3d
       -0.24527855 0.3179272 0.12551309 0.10979031
000070 6d e7 18 be 25 1c 2b be e0 e1 b6 3e b1 f9 90 bc
       -0.14932032 -0.16709955 0.35719204 -0.017697187
000080 94 db 30 3e 18 ea 18 3e 55 39 35 bd ec b7 0b 3e
       0.17271262 0.1493305 -0.04424413 0.1364438
000090 02 1b 20 3d a6 6b 5f be 5d 9e 58 bb 1d 21 c2 3b
       0.039088257 -0.21818408 -0.0033053376 0.0059243576
0000a0 f2 cb 0d 3e da fe 53 be 2b 73 2c be 80 da 11 3e
       0.1384733 -0.20702687 -0.16840808 0.14243507
0000b0 6c c2 bb bd 54 06 3b be 37 3b cf bc 3b 4f 56 3d
       -0.091679424 -0.18264133 -0.02529679 0.052321654
0000c0 7a 13 4c be 4e 46 b8 bb b7 04 81 3a f5 ef b4 bd
       -0.19929305 -0.0056236153 0.0009843324 -0.08834831
0000d0 63 ef 85 3c ae 17 c2 bc dc e6 ce 3b bc 89 08 bd
       0.0163495 -0.023692932 0.0063141417 -0.03333448
0000e0 a2 9c 22 be 97 99 56 be 73 2c 3a 3d 5c 18 db 3e
       -0.15880063 -0.20957027 0.045452546 0.42792022
0000f0 a8 02 37 bd 1a 31 7f 3d dd 6f 11 3d f0 64 3a be
       -0.044680268 0.062302686 0.03550707 -0.18202567

convs.2.lin_r.weight f4 [64, 64]
000000 82 fd f5 bd 09 ff e0 bd 7e b8 fe bd 82 21 e0 3d
       -0.120112434 -0.10986144 -0.12437533 0.10943891
000010 bc a0 e6 3c 69 e5 3d bd 48 22 73 bd a0 c9 9d bb
       0.028152816 -0.04636136 -0.059358865 -0.0048152953
000020 58 8e b1 3d 84 07 cd 3d 48 04 3b be d8 bc 0b bd
       0.08669728 0.10011199 -0.18263352 -0.034115642
000030 c7 16 68 3d be 60 b4 bd ae 74 a5 bd 7f 07 be bd
       0.056662347 -0.088075146 -0.080788955 -0.092787735
000040 56 c0 ca 3d bc 2f 25 3d 9c 9a 02 3d 56 5f 24 be
       0.098999664 0.040328726 0.03188573 -0.16051993
000050 59 f6 ac bc d7 6b ea bd fc 73 01 3d 22 6e 82 3d
       -0.021113561 -0.1144635 0.031604752 0.063686624
000060 72 02 45 bd 1c 60 4f 3d 89 28 38 be 0f 5d fb bd
       -0.048098035 0.050628766 -0.17984213 -0.12273609
000070 b4 4e c5 bd 22 44 9f bd 43 8e 3f bc 64 22 95 bd
       -0.09634152 -0.07776667 -0.011691633 -0.0728195
000080 2b e6 0c be 0c f2 81 bd 25 16 58 3d b0 9f ed bc
       -0.13759677 -0.06344995 0.052755494 -0.029006809
000090 29 94 1f be aa 5a 80 bd e6 3f 89 bd 70 e8 72 bc
       -0.15583862 -0.06267293 -0.06701641 -0.014825925
0000a0 f3 af e5 bc 2a 10 c6 bd 30 60 fc 3c fc 30 95 3d
       -0.028038 -0.09671052 0.030807585 0.07284734
0000b0 94 a3 a8 bd d8 30 96 bd ea 36 f7 bd ac 31 70 bd
       -0.08234325 -0.07333535 -0.12071021 -0.05864112
0000c0 f8 7c 06 bd 36 1e 53 3d 11 bf ce 3c 8c b5 2d bd
       -0.032834023 0.051542483 0.025237592 -0.042409465
0000d0 88 fe 49 bd 3e e8 c6 3c f0 ac d2 3c ee 54 2f be
       -0.049315006 0.024280664 0.025717229 -0.17122242
0000e0 02 0d 32 be d2 da b3 bd 80 e0 33 bd d8 32 16 bd
       -0.17387775 -0.08781971 -0.04391527 -0.036669582
0000f0 f0 30 fb 3d 96 bc 88 bd 0c 00 e2 bd 72 60 df bc
       0.122651935 -0.06676595 -0.11035165 -0.027267668
000100 94 c9 3a bd e9 50 f0 bc d8 d0 52 bd 00 b0 2a 3d
       -0.045602396 -0.029335456 -0.0514687 0.041671753
000110 2e 5a 35 be 3a b5 81 bd 79 bc 84 bc 60 14 31 3d
       -0.17710182 -0.06333394 -0.016203152 0.04323232
000120 c0 9d a0 bc c9 94 19 be 65 85 8e 3d a8 f8 34 bd
       -0.019606471 -0.14998163 0.06959037 -0.04418245
000130 c7 e3 10 be b8 e1 58 bd 74 46 15 bd 60 82 ff 3c
       -0.1414939 -0.052949637 -0.036444142 0.031190097
000140 4e 0b 84 bd 84 44 60 3d b6 e1 eb 3d 34 cc 46 3d
       -0.06447469 0.05475284 0.1151766 0.048534587
000150 d4 b3 b3 3d 64 f1 f3 bd e4 62 b3 bd eb 31 08 be
       0.08774534 -0.11911276 -0.08759096 -0.13300292
000160 ad 08 32 3d 00 50 ea b9 8a 32 c6 3d c0 32 fc bb
       0.043465305 -0.00044691563 0.09677608 -0.0076964796
000170 a0 fe 1a bc 8a 9a 8c bd 5d 3f 4b bc 60 14 a6 bb
       -0.009460121 -0.068654135 -0.012405244 -0.005068347
000180 21 17 a2 bc 1e b2 b3 bd 14 95 b5 bd 42 43 dc bd
       -0.01978642 -0.087742075 -0.08866325 -0.10755016
000190 01 97 c3 bd c2 74 db bd 94 7f 3d bd 40 5e 7f bd
       -0.09550286 -0.10715629 -0.046264246 -0.062345743
0001a0 7a d7 34 be 70 23 19 bd 38 e2 ac 3d b0 ff a2 3d
       -0.17660323 -0.03738731 0.08441585 0.07958925
0001b0 e7 3b cc bd 4c d4 f2 bd 0c 4d 65 bd 64 ba 41 bd
       -0.09972363 -0.11856899 -0.05598168 -0.047296897
0001c0 f0 38 1d be 7c aa 2b 3d 32 9b 16 be f8 b9 21 bd
       -0.15353751 0.041910633 -0.1470764 -0.039483994
0001d0 ae 1d da 3d b1 30 e2 3c d6 d7 a8 3d 55 01 3b be
       0.10650192 0.027611108 0.082442924 -0.18262227
0001e0 1e b4 0b be de 3f e5 bd 04 e9 46 bd f2 a5 9e 3d
       -0.13642928 -0.11193822 -0.048562065 0.07746495
0001f0 94 69 7c bd 88 a5 31 be 94 3f ea bd a0 9e d2 3c
       -0.061624125 -0.17348301 -0.11437908 0.025710404
000200 93 f6 5c 3c ee b0 88 3d 65 d9 c3 3d 42 5f 39 3e
       0.013486522 0.06674372 0.09562949 0.18102744
000210 15 de 85 bd b1 e0 54 bd 8b 82 fa 3c 45 6c 0b bd
       -0.065364994 -0.051972095 0.030579826 -0.0340388
000220 9a ff f1 3d e2 1b 34 bd 00 cc 97 3c 37 f7 ae 3d
       0.1181633 -0.043971904 0.018529892 0.08543246
000230 68 97 41 3d 00 40 32 3e 8c c6 bb 3d 87 a9 31 bd
       0.047263533 0.17407227 0.09168729 -0.043374564
000240 29 90 c6 3c 60 ef 18 bc 36 12 e4 3e 38 d2 1f 3e
       0.024238663 -0.009334415 0.44545144 0.15607536
000250 c0 4d 33 3e 9f c4 86 3c 62 bd 6f bd 76 b1 f1 3c
       0.17510128 0.016451178 -0.05853022 0.029503565
000260 ed 57 e5 3d 5f e5 8a bd 68 fa c5 3d 7d a6 ea 3b
       0.11198411 -0.0678203 0.09666902 0.00716096
000270 4e 65 86 bd 2f 46 ad 3d 21 79 21 3e 6d 1b 2d 3e
       -0.06562291 0.08460652 0.15768863 0.16904993
000280 82 45 1f 3e 5e 06 00 3e f4 26 bd 3d 07 9a 93 3d
       0.15553859 0.12502429 0.09235945 0.07207113
000290 a2 14 ac 3d ca c2 02 be 50 38 e2 3c f0 c8 2e bd
       0.08402373 -0.12769619 0.027614743 -0.042672098
0002a0 94 98 bd 3d de ed 0e 3f 94 22 2d 3d ba fe 5e 3d
       0.092576176 0.55831707 0.042269304 0.054442145
0002b0 00 63 73 3d 98 f4 5a 3e 2b 17 9c 3e d5 9d 25 3e
       0.059420586 0.21382368 0.30486426 0.1617349
0002c0 75 52 35 3e f4 07 8e 3d 9f bf c0 3d 9c 41 8a bc
       0.17707236 0.06935111 0.09411549 -0.016876988
0002d0 50 e3 8e bd 39 6a bf 3d e4 44 8a 3d 1e 52 69 bd
       -0.0697695 0.09346432 0.06751421 -0.05696308
0002e0 a2 54 c5 3d d7 eb fa bd 5b 83 de 3d b7 75 c2 bc
       0.09635283 -0.12252014 0.10864898 -0.023737771
0002f0 1f 40 90 3d 47 f6 50 3d c0 df 94 3c c9 49 1e 3e
       0.0704348 0.05101612 0.018173099 0.15457834
000300 c6 08 c1 bc 22 80 64 3e 3f d9 2f 3e b0 cc 3e bd
       -0.023563754 0.22314504 0.17172717 -0.046581924
000310 4a 95 81 bd 03 31 db 3d 36 7e e1 3d 67 49 7f 3d
       -0.06327303 0.107027076 0.11010401 0.06232586
000320 44 b7 29 3e 36 b9 83 3d 48 fb 1a 3d 2a db 2e bc
       0.16573817 0.064318106 0.037837297 -0.01067237
000330 8c 5c 72 bd 2b bf 2c 3e 00 3c 0c 3e 85 97 2b bd
       -0.05917029 0.168698 0.13694763 -0.041892547
000340 c3 97 02 bd c6 63 f4 bd a8 cc 83 3e 54 1c c4 3d
       -0.031883013 -0.11933093 0.25742078 0.09575716
000350 a8 c6 bf bc 08 c4 a2 39 eb d2 f0 3d 68 92 84 3b
       -0.023410156 0.00031045103 0.117589794 0.0040457733
000360 03 51 c1 3c f7 a5 fb 3d 28 8a c3 3d e0 ac b8 3d
       0.0235982 0.12287515 0.095478356 0.09017348
000370 e9 21 50 3d d3 8e a9 bc 74 46 8f 3c 05 72 30 3e
       0.05081359 -0.020697987 0.01748965 0.17230995
000380 a7 ce f7 3d af d4 85 3d 0b 31 23 3e 9b e2 6a bd
       0.12099963 0.06534707 0.15936677 -0.057345014
000390 05 34 17 3e 18 de c9 bc eb 38 65 3d 7c 80 f4 bc
       0.14765938 -0.024642035 0.055962484 -0.029846422
0003a0 3c 0b 12 3e 1a 5e 12 3f 26 a6 12 3e 48 e7 9d 3d
       0.14262098 0.5717484 0.14321193 0.07710129
0003b0 f6 c4 10 3e 1e 2b 07 3d 69 b0 03 3e e7 8f 4f 3d
       0.14137635 0.033000104 0.12860264 0.050674345
0003c0 2c 68 95 3d c3 8c 84 3d 40 cb 92 3d 1c 32 01 3e
       0.0729526 0.06472161 0.07167673 0.12616771
0003d0 ec fc be bc 5d 76 2d 3a 20 3f db 3c fb cc 3e 3e
       -0.023313962 0.0006617064 0.026763499 0.18632881
0003e0 d1 6f 02 3d 54 69 4c be f0 42 fb 3d 5c 05 93 3d
       0.031844918 -0.19962054 0.12268627 0.071787566
0003f0 cc 46 79 3d ec 5b a8 bc cb b8 2b 3d 38 cb 1e 3c
       0.060858533 -0.020551644 0.04192428 0.009692006

out.weight f4 [1, 64]
000000 0a bf 1e 3c 68 bd da 3b 55 0c c2 3d 7e a8 16 3e
       0.009689102 0.006675411 0.094750084 0.14712712
000010 ff 33 26 3d 38 0f 21 3e 70 d1 7c 3d 54 2c 15 3e
       0.04057693 0.15728462 0.061723173 0.14567691
000020 d9 51 01 3e e1 16 49 3d c6 a4 ef 3b b7 f3 a6 3c
       0.12628879 0.049094085 0.0073133437 0.020379884
000030 ce 8b 90 be 78 af 26 3d 58 74 17 bd 97 43 f4 3d
       -0.28231663 0.040694684 -0.03697619 0.11926954
000040 f8 0e 9f 3d 1a d5 66 3d 52 3a 26 3e ca 9d ba 3c
       0.07766527 0.056355573 0.16233185 0.022780318
000050 91 65 02 3e af cf 84 bd 51 f5 87 bf c9 e1 94 bb
       0.12734057 -0.06484925 -1.062174 -0.0045435173
000060 ff b8 b7 3d 1b 32 a6 be b7 c2 03 3e 0c bf 22 3e
       0.08970832 -0.32460102 0.12867247 0.15893191
000070 5b 98 19 3c e3 50 38 bd 68 08 49 bf 8f 68 98 3d
       0.009374703 -0.044999015 -0.7852845 0.07441818
000080 fd 4a 8c 3f 38 cf 3b 3e d9 34 2e bd 7e 18 ac 3d
       1.0960385 0.18340766 -0.04253087 0.08403109
000090 76 30 a6 3d a2 77 1e bd d4 21 9e 3c f1 3e db 3d
       0.08114712 -0.03868831 0.01930324 0.107053645
0000a0 92 62 b9 3d ee ff 55 bc 2b 81 c6 3d 3d 6a 4f 3e
       0.09052004 -0.013061507 0.096926056 0.2025537
0000b0 6d 76 1c bd 9b 1b c7 3c 37 ca 16 3b 40 8d d3 3d
       -0.038198877 0.024305156 0.0023008713 0.10329676
0000c0 6d da 52 bd 43 e6 38 3d 3f 83 8c 3d e1 59 2a bc
       -0.05147784 0.04514147 0.06860971 -0.010397405
0000d0 90 c6 77 3d ec de 5b 3c a0 b3 75 3f 16 98 1c 3e
       0.0604921 0.013419848 0.9597721 0.15292391
0000e0 aa 38 43 bd 23 07 83 bb c2 48 96 3c c6 76 21 bf
       -0.04766146 -0.0039986535 0.01834524 -0.6307186
0000f0 ff c9 20 3c 3b 34 ec 3d 22 31 18 3e eb fb c6 bd
       0.009813785 0.115334 0.14862493 -0.09716018
