best_models/best_gnn1.pth (torch, 118672 bytes, 13 tensors)

convs.0.lin_l.weight f4 [64, 27]
-0.13663153 -0.25146666 -0.05375861 -0.0032932265 0.15828031 -0.10040376 -0.13396727 -0.19664769
-0.20206536 -0.15080696 0.53196305 -0.10980074 0.051240575 0.09697456 0.00088050775 0.027931368
0.0854316 0.10470139 0.10275477 -0.13355137 0.119859174 -0.12412156 -0.0344123 -0.06624738
-0.09580569 0.06070592 -0.0006129371 -0.68443197 -0.88510096 1.0423658 -0.6598903 -0.026755346
-0.08130624 -0.050770793 -0.013355637 0.0750734 0.011703274 0.085184515 0.058762535 -0.45344383
-0.17111498 0.119319744 -0.04329001 0.017805114 0.091983326 0.019135604 -0.015886972 -0.07715365
-0.15612096 0.025839072 -0.14532338 -0.15619782 0.014528194 -0.022981986 0.93504286 -1.1709287
-2.224875 -2.310824 0.62844956 -0.3038739 -0.054486487 1.5180413 -0.07078778 0.14504111
0.104855195 -0.17667262 -0.045211285 -0.07397167 -0.15194827 0.074994095 0.00960444 -0.011693547
0.054488588 -0.034263704 -0.10713609 0.18363817 0.105206065 -0.19051084 0.18893863 0.09554659
-0.050107684 -0.38514638 -1.2286327 0.6948438 -0.27365837 -0.13811225 0.10749837 0.11468093
-0.15242124 0.02552392 0.13811256 -0.029604355 0.10465002 -0.02117222 0.13962036 0.04028587
0.051513284 -0.15071845 0.19041903 -0.14512317 -0.097169034 0.10653632 0.0050381655 -0.047135316
-0.007392824 -0.10263736 -0.16457473 0.1645562 -0.92681855 -0.7027867 -0.57925326 0.45916963
0.13105187 -0.057727713 -0.13135612 -0.23350222 0.7708234 0.18396439 -0.5978371 0.036734976
-0.009977331 -0.1000776 -0.11301659 0.050659157 -0.11294109 -0.036036443 -0.046610314 0.16957302
0.09683764 -0.14869922 -0.046925075 0.072912075 0.17322196 0.083792545 -0.12500776 0.027000805
0.015060244 -0.10074782 0.027069602 0.0074537117 0.02384379 0.021115486 -0.15997949 -0.15768461
0.049469486 0.10871479 0.023533463 0.040636092 0.11722148 -0.0028645638 -0.14003928 0.005864668
0.04415352 -0.18691257 -0.047496833 -0.049918205 0.03766942 -0.14991131 -0.06326877 0.0037449799
0.15792313 -0.16101934 -0.15468606 -1.2444993 -0.6189729 -0.8367804 0.16177097 -0.24865825
-0.12342376 -0.03483704 -0.21649548 0.041576624 -0.072119616 0.054880343 0.25780588 0.03328115
-0.022065667 -0.043805216 0.12440299 0.15465273 -0.06945676 0.08030086 -0.044774346 0.1495063
0.14857958 -0.067230396 0.13324071 0.16397583 -0.04767789 -0.43117955 -0.088116094 -0.33648786
-0.19783005 -0.28151342 -0.0070903352 0.01575969 -0.12951916 0.19503729 0.052736312 -0.1545762
-0.012971935 0.18244073 0.004199733 0.15796332 -0.18581711 -0.11757566 -0.17682253 -0.07889173
0.12714766 0.16073015 0.17898074 -0.054858066 0.013475004 -0.07236379 -0.02881371 0.06815215
-0.16217145 -0.88405365 0.10597117 -0.111973725 0.6337181 -0.0942152 -0.115561344 -0.024453385
-0.11135686 -0.03275888 -0.16202584 -0.083005406 0.7108738 -0.013619354 0.15595224 -0.044793274
-0.17810367 -0.034351252 0.038043533 0.020129284 0.034749568 0.04979962 0.18915682 -0.1401975
-0.15503177 -0.0053205565 -0.189004 -1.0338471 -0.043589827 0.1149349 -1.075665 -0.0031507222
-0.16547115 -0.19142546 -0.33927274 0.118830696 0.12142849 -0.27290583 0.03749052 0.5023585
00000000: 23e9 0bbe 3dc0 80be fd31 5cbd 2cd3 57bb
00000010: 3c14 223e 7da0 cdbd b72e 09be 035e 49be
00000020: 39ea 4ebe 246d 1abe bb2e 083f 36df e0bd
00000030: a3e1 513d 999a c63d e0d1 663a 53d0 e43c
00000040: c3f6 ae3d af6d d63d 1871 d23d b1c1 08be
00000050: ba78 f53d 7233 febd e9f3 0cbd b5ac 87bd
00000060: c635 c4bd c5a6 783d 83ad 20ba ef36 2fbf
00000070: fa95 62bf 3e6c 853f 92ee 28bf 072e dbbc
00000080: e383 a6bd 09f5 4fbd 9ad1 5abc 15c0 993d
00000090: 17bf 3f3c 3875 ae3d fcb0 703d ca29 e8be
000000a0: c438 2fbe e95d f43d de50 31bd 08dc 913c
000000b0: c161 bc3d 45c2 9c3c 6525 82bc bc02 9ebd
000000c0: 2cde 1fbe 76ac d33c a7cf 14be 52f2 1fbe
000000d0: aa07 6e3c b844 bcbc f85e 6f3f fee0 95bf
000000e0: 5a64 0ec0 8ae4 13c0 12e2 203f 5c95 9bbe
000000f0: 392d 5fbd 2d4f c23f 2ff9 90bd a885 143e
00000100: 52be d63d abe9 34be 782f 39bd 757e 97bd
00000110: 5498 1bbe 8196 993d f15b 1d3c 4a96 3fbc
00000120: 6d2f 5f3d 1958 0cbd 2b6a dbbd a50b 3c3e
00000130: 4776 d73d 4615 43be 2179 413e eead c33d
00000140: b73d 4dbd e831 c5be d643 9dbf 49e1 313f
00000150: f31c 8cbe 4c6d 0dbe 1b28 dc3d d6dd ea3d
00000160: 5014 1cbe 8a17 d13c 616d 0d3e d584 f2bc
00000170: c052 d63d 5d71 adbc a4f8 0e3e cc02 253d
00000180: 98ff 523d f055 1abe 35fd 423e 2b9b 14be
00000190: 8f00 c7bd b72f da3d 3217 a53b f610 41bd
000001a0: 813f f2bb 8933 d2bd 4786 28be 6c81 283e
000001b0: fb43 6dbf d4e9 33bf f149 14bf 4818 eb3e
000001c0: 7632 063e e573 6cbd 3882 06be 351b 6fbe
000001d0: af54 453f 2961 3c3e da0b 19bf 6a77 163d
000001e0: f677 23bc 7cf5 ccbd 3e75 e7bd fa7f 4f3d
000001f0: a84d e7bd f39a 13bd 75ea 3ebd 8da4 2d3e
00000200: d052 c63d 9c44 18be 8234 40bd ed52 953d
00000210: 1961 313e 6d9b ab3d 0902 00be cb30 dd3c
00000220: 3ebf 763c e054 cebd 12c1 dd3c 443e f43b
00000230: 0d54 c33c 62fa ac3c aad1 23be 1378 21be
00000240: 84a0 4a3d dca5 de3d 40c9 c03c 0872 263d
00000250: d111 f03d 68bb 3bbb 7566 0fbe 672c c03b
00000260: 52da 343d 0266 3fbe 0a8c 42bd 0877 4cbd
00000270: 404b 1a3d 5a82 19be 0f93 81bd 566e 753b
00000280: 9ab6 213e 41e2 24be 0666 1ebe c14b 9fbf
00000290: 0275 1ebf 3e37 56bf 4aa7 253e 45a0 7ebe
000002a0: 99c5 fcbd 49b1 0ebd feb0 5dbe 404c 2a3d
000002b0: 73b3 93bd 36ca 603d 22ff 833e d151 083d
000002c0: 0fc3 b4bc 196d 33bd ffc6 fe3d 495d 1e3e
000002d0: 593f 8ebd c774 a43d 4e65 37bd 2e18 193e
000002e0: 3f25 183e 17b0 89bd 4170 083e 48e9 273e
000002f0: e449 43bd 91c3 dcbe 3676 b4bd 2348 acbe
00000300: f693 4abe 8722 90be 0b56 e8bb 771a 813c
00000310: aca0 04be dbb7 473e 0802 583d 3949 1ebe
00000320: 3d88 54bc bed1 3a3e ea9d 893b 23c1 213e
00000330: d746 3ebe 82cb f0bd f710 35be fd91 a1bd
00000340: ff32 023e 7296 243e ba46 373e dab2 60bd
00000350: 43c6 5c3c 7733 94bd bb0a ecbc 5b93 8b3d
00000360: 4610 26be 5751 62bf 6a07 d93d 7b52 e5bd
00000370: 593b 223f e6f3 c0bd 6dab ecbd 7752 c8bc
00000380: 110f e4bd 2d2e 06bd 1aea 25be bdfe a9bd
00000390: d3fb 353f b623 5fbc f2b1 1f3e 2779 37bd
000003a0: cf60 36be e6b3 0cbd 89d3 1b3d 2be6 a43c
000003b0: 9055 0e3d b0fa 4b3d 53b2 413e ef8f 0fbe
000003c0: a6c0 1ebe 1058 aebb 448a 41be 1a55 84bf
000003d0: 3f8b 32bd fd62 eb3d 64af 89bf 597c 4ebb
000003e0: 4571 29be 0905 44be 28b5 adbe 825d f33d
000003f0: 80af f83d 50ba 8bbe a98f 193d 919a 003f

convs.0.lin_l.bias f4 [64]
-0.34874564 -0.46270224 -0.5016981 -0.4539029 -0.63881475 -0.3677969 -0.44148 -0.5733252
-0.90954643 -0.6931566 -0.46167302 0.7127391 -0.7153018 -0.38505778 -0.37672833 -0.5857917
-0.54341483 -0.6685512 -0.62862235 -0.28098556 -0.7105693 -0.6559088 -0.5602974 -0.52450454
-0.70760244 -0.4585066 -0.7191312 -0.26817447 -0.09272396 -0.3727076 -0.74224454 -0.32961556
-0.20952727 -0.28930596 -0.21522152 -0.45681548 -0.39150003 -0.20209236 -0.17559549 -0.218056
-0.5243975 -0.19389774 -0.41363034 -0.096217595 -0.60462964 -0.8418717 -0.18372811 -0.38614127
-0.3994915 -0.56499755 -0.8159654 -0.17660822 -0.24833867 -0.13800137 -0.67030686 -0.68062943
-0.24226546 -0.71302706 -0.27182066 -0.7638039 -0.6155411 -0.29016474 -0.4192217 -0.5872252
00000000: ca8e b2be 4fe7 ecbe 496f 00bf f665 e8be
00000010: 5d89 23bf e04f bcbe ab09 e2be 71c5 12bf
00000020: 09d8 68bf b672 31bf 6860 ecbe 1276 363f
00000030: 051e 37bf 4b26 c5be 89e2 c0be 72f6 15bf
00000040: 3c1d 0bbf 2c26 2bbf 65ed 20bf 57dd 8fbe
00000050: dfe7 35bf a4e9 27bf a76f 0fbf ee45 06bf
00000060: 6f25 35bf 61c1 eabe fb18 38bf 2a4e 89be
00000070: 0fe6 bdbd 88d3 bebe bd03 3ebf 5fc3 a8be
00000080: 518e 56be e91f 94be 0863 5cbe b8e3 e9be
00000090: b172 c8be 4df1 4ebe 4ecf 33be 124a 5fbe
000000a0: ea3e 06bf 218d 46be 5bc7 d3be bb0d c5bd
000000b0: 02c9 1abf e784 57bf 3923 3cbe 4fb4 c5be
000000c0: 268a ccbe aea3 10bf 1ce3 50bf c9d8 34be
000000d0: 7e4c 7ebe 3b50 0dbe 3b99 2bbf bb3d 2ebf
000000e0: 7014 78be f188 36bf 142c 8bbe a788 43bf
000000f0: 1a94 1dbf 7990 94be 3aa4 d6be 6454 16bf

convs.0.lin_r.weight f4 [64, 27]
0.09773469 0.07018742 -0.28425884 -0.38811952 -0.18638985 0.012317084 0.11431186 -0.032263547
-0.18079045 -0.009448068 -0.026083954 0.03924908 -0.118145406 -0.059026506 0.001704028 -0.06536525
-0.041133065 0.096079364 -0.13920312 -0.09963143 -0.12662576 -0.04098424 0.14774032 -0.053930342
-0.1694755 0.14436379 -0.015597422 -1.3749753 -1.3507868 -0.21495634 0.51395184 0.63048905
-0.10262626 0.11297192 -0.12878941 0.051227983 -0.18635173 0.00762082 0.005844181 0.008086451
0.12978512 -0.11235236 0.15963337 0.11821831 -0.13516827 0.13051273 0.051312886 -0.14126486
0.06648052 -0.09053577 -0.11035307 0.17523341 -0.12796755 0.05052341 0.23254079 -0.92866117
-0.8251852 -0.746673 -0.8718932 0.23212315 -0.1886934 -1.116023 -1.070782 0.1701049
-0.7714253 -0.0014233117 -0.9910099 -0.10971698 0.18948293 -0.061057914 0.045483895 -0.08284018
0.010494997 0.10007556 0.06025837 0.15261067 -0.051732287 -0.081637226 -0.08478168 0.18827796
0.03412445 -0.82186586 -0.58436495 -0.46591753 -0.46967763 1.5779939 -0.29906556 -0.1862067
-0.36393592 -0.058400054 0.084991895 -0.02622422 0.19010156 -0.3650884 0.18669724 0.11744028
0.04348513 -0.12941174 0.017812526 0.03167534 -0.07432465 0.15027106 0.076729596 -0.05804035
-0.12889946 0.11489844 0.07404403 0.17781772 -0.47264206 -0.10842007 0.17088112 -0.87823343
0.7283085 -0.079459175 0.09640892 -0.19192965 0.22758864 0.096324705 -0.09376068 -0.17131753
-0.004125114 -0.098088615 -0.10860403 -0.11636137 0.19169433 0.10811995 0.0069939573 -0.14322379
0.18385682 -0.018059792 -0.16111358 0.032924775 0.17194094 -0.18616258 0.154161 -0.09754596
-0.08997776 -0.109497495 -0.041856382 0.10473259 -0.094646394 -0.084228784 -0.05079541 0.2697457
0.17648618 0.060973924 0.04700801 0.30399886 -0.049657013 -0.0348902 0.0252254 0.01187933
-0.15499167 0.15811938 0.15038063 -0.1726185 -0.034939595 -0.102649264 0.07300059 0.049833253
0.09871981 0.08535041 -0.17857006 -0.4630019 -0.12137548 0.38707587 0.5936593 -0.33457953
0.039020948 -0.4968156 -0.0014807406 -0.09183689 -0.17453378 -0.066050954 -0.30367076 0.1789018
-0.19109738 0.08874842 -0.10463764 -0.06529667 0.087905765 0.09953532 -0.021910006 -0.15709408
-0.14447446 -0.105230086 0.15766671 -0.049782805 -0.05409055 -0.39649478 -0.17282382 -0.2282375
-0.32577544 0.4144973 -0.21231069 -0.14869264 -0.17463422 0.014794954 0.06892706 0.008211549
-0.1293758 0.13994619 0.09681681 -0.008161284 -0.026001684 -0.026911763 -0.15622054 0.11829718
0.104406245 0.026613703 -0.18579166 0.08724192 -0.10562425 0.17993085 -0.13438538 0.11087951
-0.5060665 -0.17873496 -0.34708446 -0.5003076 0.7418082 -0.25385037 -0.45822737 -0.42163232
-0.211816 0.15762256 -0.16948068 0.19102064 0.17774495 -0.042873457 -0.17754014 0.09986
-0.1547881 -0.062080503 -0.023255019 0.056783803 -0.112638414 0.14962506 0.12278795 0.16108426
-0.18277562 0.025152927 -0.05600433 -0.26230848 -0.054169066 0.014237287 0.5418719 0.5366736
-0.14172773 -0.3508391 -0.0498698 -0.34347302 -0.17774889 0.3283032 -0.04630496 0.1784299
00000000: 2029 c83d 6cbe 8f3d 608a 91be 9ab7 c6be
00000010: fbdc 3ebe 98cd 493c 561c ea3d c826 04bd
00000020: 2221 39be 12cc 1abc 04ae d5bc a5c3 203d
00000030: 38f6 f1bd c7c5 71bd b159 df3a 37de 85bd
00000040: 257b 28bd 42c5 c43d 438b 0ebe 900b ccbd
00000050: 2faa 01be 17df 27bd 3d49 173e 10e6 5cbd
00000060: fc8a 2dbe 1ad4 133e 548c 7fbc 31ff afbf
00000070: 95e6 acbf 841d 5cbe 5992 033f bb67 213f
00000080: b72d d2bd d25d e73d 5fe1 03be 6fd4 513d
00000090: fdd2 3ebe 12b8 f93b 8b80 bf3b 097d 043c
000000a0: 64e6 043e fe18 e6bd ee76 233e 711c f23d
000000b0: 8d69 0abe 21a5 053e 762d 523d bca7 10be
000000c0: f026 883d d16a b9bd ca00 e2bd 6370 333e
000000d0: ed09 03be a3f1 4e3d 2c1f 6e3e bdbc 6dbf
000000e0: 563f 53bf f625 3fbf 6534 5fbf b1b1 6d3e
000000f0: d838 41be d7d9 8ebf 620f 89bf fb2f 2e3e
00000100: 217c 45bf 6a8e baba d3b2 7dbf 4cb3 e0bd
00000110: d007 423e dd17 7abd 524d 3a3d 1da8 a9bd
00000120: 35f3 2b3c 6af4 cc3d 7bd1 763d f945 1c3e
00000130: 3ce5 53bd 6b31 a7bd 04a2 adbd f0cb 403e
00000140: 14c6 0b3d cd65 52bf f198 15bf be8c eebe
00000150: 9679 f0be b4fb c93f 1f1f 99be f8ac 3ebe
00000160: cf55 babe e534 6fbd 3b10 ae3d 2dd4 d6bc
00000170: fca9 423e deec babe 902d 3f3e 8884 f03d
00000180: 771d 323d 8384 04be 93eb 913c 00be 013d
00000190: 8637 98bd a8e0 193e 6824 9d3d b8bb 6dbd
000001a0: 38fe 03be e04f eb3d 65a4 973d d915 363e
000001b0: 24fe f1be 570b debd 76fb 2e3e e8d3 60bf
000001c0: 6d72 3a3f 7ebb a2bd 0a72 c53d 3589 44be
000001d0: ff0c 693e e345 c53d 9905 c0bd dd6d 2fbe
000001e0: f72b 87bb afe2 c8bd ca6b debd df4e eebd
000001f0: 854b 443e fe6d dd3d 912d e53b 42a9 12be
00000200: f644 3c3e 21f2 93bc f5fa 24be 21dc 063d
00000210: 4911 303e 67a1 3ebe 62dc 1d3e 2dc6 c7bd
00000220: 4346 b8bd 3940 e0bd 9971 2bbd 0a7e d63d
00000230: f8d5 c1bd 2480 acbd d90e 50bd 1c1c 8a3e
00000240: cbb8 343e cbbf 793d 798b 403d bda5 9b3e
00000250: 2765 4bbd 07e9 0ebd 80a5 ce3c 85a1 423c
00000260: 23b6 1ebe 0cea 213e 61fd 193e e7c2 30be
00000270: d21c 0fbd c739 d2bd 5581 953d f41d 4c3d
00000280: 9d2d ca3d 32cc ae3d 12db 36be 960e edbe
00000290: b593 f8bd cf2e c63e 0efa 173f 024e abbe
000002a0: 6ed4 1f3d 9d5e febe 6915 c2ba fb14 bcbd
000002b0: fcb8 32be b945 87bd bc7a 9bbe 0932 373e
000002c0: 08af 43be bbc1 b53d 424c d6bd 43ba 85bd
000002d0: f007 b43d 2dd9 cb3d 9d7c b3bc 45dd 20be
000002e0: 1df1 13be df82 d7bd 6273 213e 0ee9 4bbd
000002f0: 0d8e 5dbd 5d01 cbbe baf8 30be 17b7 69be
00000300: 0acc a6be fd38 d43e f967 59be e242 18be
00000310: 50d3 32be 8966 723c a129 8d3d bc89 063c
00000320: 177b 04be 0e4e 0f3e e447 c63d e8b6 05bc
00000330: 7c01 d5bc 0f76 dcbc 47f8 1fbe cb45 f23d
00000340: f1d2 d53d fb04 da3c 2b40 3ebe e4ab b23d
00000350: 8751 d8bd cb3f 383e 529c 09be cc14 e33d
00000360: 938d 01bf 4c06 37be 0eb5 b1be 2914 00bf
00000370: 24e7 3d3f adf8 81be c79c eabe 31e0 d7be
00000380: 4be6 58be cf67 213e 588c 2dbe ea9a 433e
00000390: c602 363e 149c 2fbd 15cd 35be 6683 cc3d
000003a0: c680 1ebe 2048 7ebd 4f81 bebc 2296 683d
000003b0: f8ae e6bd 5037 193e 4078 fb3d 46f3 243e
000003c0: 8829 3bbe 830d ce3c cc64 65bd 4c4d 86be
000003d0: 62e0 5dbd 8343 693c 1eb8 0a3f 7163 093f
000003e0: 1321 11be 2fa1 b3be 4744 4cbd b2db afbe
000003f0: ce03 36be 5b17 a83e 45aa 3dbd 54b6 363e

convs.1.lin_l.weight f4 [64, 64]
-0.08348928 -0.2943156 -0.56733876 -0.23364073 0.814082 0.18887427 -0.09223575 -0.17998195
-0.3529073 -0.54766464 1.2306744 0.9317782 -0.3177783 1.635589 0.1793824 -0.8862627
0.20795433 0.23153234 0.15685117 -0.13428557 0.45946008 -1.3535644 -0.36042947 1.4979033
-0.5265516 -1.8040085 0.13177103 -0.017981237 0.24563816 -0.038596474 -3.394687 1.1902496
-0.22094913 -0.2472515 -0.6461136 0.003770765 -5.514097 0.124136314 0.07405422 -0.12444268
-1.1632564 0.11144607 0.84016055 0.4004966 -0.71424735 -0.7034833 0.001914296 0.025441058
1.2209576 -0.37580588 0.08612867 0.07652408 -0.10790105 -0.095817186 3.4826424 -1.5873343
-0.11999787 0.93737274 -0.12556314 0.69948316 0.14930706 0.12661156 -0.112927355 -0.35607538
0.11661352 -0.10039513 0.02507185 0.07880588 -0.36202088 -0.015393734 -0.0644649 -0.065919414
-0.07111514 -0.5137528 -0.35514867 -0.37549222 0.23492931 -0.2831813 0.009550452 -0.29528663
0.073117405 -0.57508 0.009517953 0.07309602 0.04592757 0.31873828 -0.09261541 -0.054226816
-0.44115713 -0.20913115 -0.10523338 -0.07726291 -0.036155894 0.10864529 -0.4001628 -0.062450737
-0.06726694 -0.2888312 0.0028737183 -0.11840519 -0.28105375 -0.11773798 -0.082341254 0.036719263
0.024903134 -0.0057658106 -0.02677013 -0.16240701 0.05978433 -0.08882232 -0.04190485 -0.43456057
-0.49912265 0.030871658 -0.37819293 0.008442894 -0.02152352 0.010456353 -0.32127398 -0.3935031
-0.112683445 -0.18189777 0.03760901 0.12339681 -0.09811742 0.03983873 -0.00138011 -0.13826953
-0.1257333 0.04844245 -0.14962879 -0.19152682 -0.15116867 0.017747816 0.035775997 -0.0040484355
-0.03736865 -0.042119745 -0.027032275 -0.37174886 -0.1639669 -0.3258205 -0.16556849 -0.2735978
-0.17218383 -0.37894115 -0.12938888 0.037075214 -0.18571934 -0.1457085 -0.14057183 -0.03885219
-0.46362907 -0.1038688 -0.25148243 -0.14953987 -0.031789605 -0.074476175 0.06807131 -0.23267548
-0.043123305 -0.27505717 -0.15938288 0.0010326806 -0.004145997 -0.057976533 -0.086104214 -0.124950714
-0.14537983 -0.07055295 -0.13069023 -0.13856556 -0.15809447 -0.022006609 0.013745081 -0.122340776
-0.05306841 -0.20083508 -0.22551662 -0.07957494 0.01441294 -0.1701497 -0.39600253 -0.15305156
-0.096649975 -0.027112938 -0.06167644 -0.1075754 -0.18900809 -0.20228133 -0.08958722 -0.1574058
0.11855098 -0.8993369 -0.99216413 -1.0483416 0.096776694 -0.31198993 -0.23590042 -0.8853957
-0.031906668 -0.5652593 -2.3239765 1.1654447 -0.1264119 0.14834188 -0.562601 -0.48975563
0.45584294 0.40039262 0.044638198 -0.10546231 -1.5382973 -1.5872724 -0.9898831 0.91631806
-0.099068634 0.06573068 -0.1534518 0.19599614 -0.1252162 -0.8583776 -2.8054442 -0.8162188
-0.13917123 -0.09337961 -0.7867382 -0.22342339 -0.93474466 -1.4932269 -0.08999815 -0.17990705
-0.49334827 -0.4328795 -1.212658 -0.9164275 -0.3679517 -1.5083019 -0.15493116 -0.042698067
0.8955948 -0.0007262605 -1.8667237 0.10517509 -0.0931472 -0.06593496 0.31727615 -1.803594
-0.42742988 0.100416094 -0.010007664 0.6374719 0.06445703 -0.972315 -2.6338089 -0.95752144
00000000: 6dfc aabd 89b0 96be 1d3d 11bf 843f 6fbe
00000010: ae67 503f 4268 413e 19e6 bcbd 304d 38be
00000020: 44b0 b4be c033 0cbf bd86 9d3f 0489 6e3f
00000030: d6b3 a2be fb5a d13f 05b0 373e 1de2 62bf
00000040: fbf1 543e d016 6d3e 989d 203e 2882 09be
00000050: 5a3e eb3e 9941 adbf 368a b8be 4cbb bf3f
00000060: 16cc 06bf c0e9 e6bf fcee 063e 634d 93bc
00000070: 9288 7b3e 5617 1ebd 8d42 59c0 195a 983f
00000080: 7d40 62be 7f2f 7dbe b367 25bf f01e 773b
00000090: 7c73 b0c0 2e3b fe3d bda9 973d cedb febd
000000a0: 96e5 94bf d63d e43d c314 573f e40d cd3e
000000b0: ead8 36bf 7b17 34bf 1de9 fa3a c469 d03c
000000c0: 5748 9c3f a169 c0be 3a64 b03d a8b8 9c3d
000000d0: 3afb dcbd cd3b c4bd 9de3 5e40 c52d cbbf
000000e0: 71c1 f5bd a9f7 6f3f a093 00be 5411 333f
000000f0: f3e3 183e 76a6 013e 7546 e7bd 834f b6be
00000100: 12d3 ee3d f69b cdbd 7b63 cd3c fa64 a13d
00000110: cd5a b9be 0036 7cbc 2c06 84bd c200 87bd
00000120: d1a4 91bd 4e85 03bf 0cd6 b5be 8440 c0be
00000130: 4f91 703e 24fd 90be 8079 1c3c cf2f 97be
00000140: 94be 953d 7138 13bf 30f1 1b3c 5eb3 953d
00000150: 8c1e 3c3d aa31 a33e 26ad bdbd f01c 5ebd
00000160: 59df e1be 7a26 56be 9984 d7bd 043c 9ebd
00000170: 3418 14bd 6c81 de3d 23e2 ccbe 58cc 7fbd
00000180: 40c3 89bd afe1 93be fe54 3c3b 6c7e f2bd
00000190: 47e6 8fbe 9c20 f1bd 88a2 a8bd f066 163d
000001a0: a801 cc3c 20ef bcbb 084d dbbc 064e 26be
000001b0: 6ae0 743d 7ae8 b5bd 6ca4 2bbd b97e debe
000001c0: 018d ffbe 8fe6 fc3c 81a2 c1be 1054 0a3c
000001d0: 1852 b0bc 2051 2b3c 067e a4be 3d79 c9be
000001e0: 94c6 e6bd 6943 3abe e80b 1a3d 77b7 fc3d
000001f0: c9f1 c8bd f02d 233d cfe4 b4ba 8796 0dbe
00000200: 3bc0 00be 976b 463d 4a38 19be 9b1f 44be
00000210: f6cb 1abe de63 913c da89 123d bda8 84bb
00000220: df0f 19bd c185 2cbd ca72 ddbc de55 bebe
00000230: f0e6 27be f2d1 a6be c98a 29be 0315 8cbe
00000240: f550 30be 9304 c2be 857e 04be 2edc 173d
00000250: 362d 3ebe 9c34 15be 10f2 0fbe 7923 1fbd
00000260: ca60 edbe 2ab9 d4bd 4ec2 80be fb20 19be
00000270: d135 02bd f786 98bd f968 8b3d 7b42 6ebe
00000280: 10a2 30bd 4bd4 8cbe 4435 23be 035b 873a
00000290: 25db 87bb cd78 6dbd 6857 b0bd 29e6 ffbd
000002a0: 73de 14be 117e 90bd a9d3 05be 21e4 0dbe
000002b0: 84e3 21be 3447 b4bc 0c33 613c cd8d fabd
000002c0: 435e 59bd b6a7 4dbe d4ed 66be 30f8 a2bd
000002d0: 4024 6c3c b93b 2ebe d8c0 cabe 8cb9 1cbe
000002e0: 6cf0 c5bd f41b debc 6fa0 7cbd 7e50 dcbd
000002f0: 568b 41be d622 4fbe 8179 b7bd fc2e 21be
00000300: dbca f23d f13a 66bf 78fe 7dbf 0f30 86bf
00000310: dc32 c63d 25bd 9fbe e18f 71be 4ba9 62bf
00000320: 91b0 02bd d5b4 10bf 08bc 14c0 4b2d 953f
00000330: 1f72 01be efe6 173e 9e06 10bf 40c1 fabe
00000340: 3f64 e93e 4300 cd3e 8bd6 363d a0fc d7bd
00000350: ede6 c4bf be2b cbbf fb68 7dbf d293 6a3f
00000360: 7fe4 cabd cf9d 863d 7822 1dbe 36b3 483e
00000370: ad38 00be a2be 5bbf 668c 33c0 b7f3 50bf
00000380: e782 0ebe cf3d bfbd ad67 49bf 1ac9 64be
00000390: 6d4b 6fbf 0f22 bfbf f350 b8bd 8e39 38be
000003a0: 2598 fcbe 62a2 ddbe 6138 9bbf fe9a 6abf
000003b0: 2a64 bcbe 0910 c1bf 46a6 1ebe 2be4 2ebd
000003c0: b345 653f 8462 3eba cdf0 eebf 0a66 d73d
000003d0: f6c3 bebd e908 87bd 0572 a23e 2bdc e6bf
000003e0: 17d8 dabe f4a6 cd3d 2ff7 23bc 5c31 233f
000003f0: 0c02 843d a3e9 78bf 5390 28c0 2020 75bf

convs.1.lin_l.bias f4 [64]
0.15735881 -0.9925 -0.23274343 1.3722479 -0.33384147 -0.3303899 -0.342307 -0.4578416
-0.17745472 -0.13758792 -0.123574756 -0.34872666 -0.40447605 0.52307814 0.47158748 -0.48559374
-0.43778044 -0.22833605 -0.42506605 -0.55542666 0.49788368 0.21921325 -0.0034042788 0.3277116
-0.39590907 -0.06807157 -0.3524852 -1.0350363 -0.4346287 -0.38346964 -0.30289826 -0.78266954
0.9539826 -0.49949887 0.4154414 -0.5412064 0.53924054 1.1126134 -0.522653 0.7044377
-0.64498276 -1.0485126 -0.2543603 -0.63540614 -0.083587684 -0.1611282 -0.2788838 1.3103096
-0.51187533 -0.14455636 -0.100187585 -0.7768581 0.8561721 -0.48271552 1.275768 -0.93066764
-0.31167388 -0.62050295 0.10354831 -0.8126351 -0.30850866 -0.11338544 -0.2733665 -0.24153325
00000000: ab22 213e 7b14 7ebf 4b54 6ebe d2a5 af3f
00000010: 45ed aabe dd28 a9be dd42 afbe 376a eabe
00000020: b1b6 35be d9e3 0cbe c314 fdbd 4d8c b2be
00000030: 7c17 cfbe 73e8 053f ea73 f13e be9f f8be
00000040: c224 e0be edd0 69be 42a2 d9be 7130 0ebf
00000050: 9cea fe3e 7079 603e 521a 5fbb d1c9 a73e
00000060: 98b4 cabe 1b69 8bbd f178 b4be 127c 84bf
00000070: a787 debe 2256 c4be 7b15 9bbe 085d 48bf
00000080: 3438 743f 51be ffbe bcb4 d43e 818c 0abf
00000090: ab0b 0a3f 1e6a 8e3f 96cc 05bf 0756 343f
000000a0: 971d 25bf a935 86bf 833b 82be faa9 22bf
000000b0: 0530 abbd cafe 24be dcc9 8ebe 3ab8 a73f
000000c0: 430a 03bf 9506 14be 262f cdbd 2ce0 46bf
000000d0: 182e 5b3f 7d26 f7be 5e4c a33f 3c40 6ebf
000000e0: b893 9fbe 48d9 1ebf 2311 d43d db08 50bf
000000f0: d9f4 9dbe a036 e8bd b2f6 8bbe 7e54 77be

convs.1.lin_r.weight f4 [64, 64]
0.13984664 -0.53371996 -2.0458322 -0.13630089 -1.2282531 -0.032289937 -0.3222055 -0.26424044
-0.42711055 0.1234558 -2.0341804 -1.2556778 -0.0129110655 -1.6419971 -0.1757746 -0.18319985
-0.26562476 0.32857385 -0.4826923 -0.10019184 -0.8407442 -0.7636064 0.8996005 0.9956179
-0.16165368 0.014113824 -0.07112726 -0.09403928 0.099072844 -0.38644975 -0.2917764 -0.15997945
-0.003194898 -0.17221375 -1.4485317 -0.14535742 -1.3844664 -0.31735313 0.11757235 -0.2662895
-1.3495289 -0.072965145 -0.97586495 -0.5210157 -0.40212134 -0.45476002 0.088505074 -1.7768306
0.46704027 -0.7462726 -1.9420054 -0.113844424 0.07228111 0.09646923 -0.21676987 -0.7197011
-0.0789253 -0.5232021 0.01097377 -0.11354088 -0.1637565 0.6733401 -1.2338907 -0.6851268
-0.21271068 0.31390607 -0.36521372 -0.32053816 -0.73800254 0.022913769 -0.1318951 -0.17547631
-0.16038465 -0.23008263 -0.39422148 -0.51534116 -0.06588125 -0.40404594 -0.26805922 -0.9577232
-0.04627599 -0.38504812 -0.016196579 0.027012065 0.1998313 0.087022245 -0.31551304 -0.108899295
-0.3624356 -0.6417891 -0.41220078 0.093958706 0.067131385 -0.25927356 -0.08657668 -0.2259271
-0.07040821 -0.48896536 -0.5398022 -0.22657287 -0.22405681 0.11859988 0.02367282 -0.116184294
-0.6610551 -0.31753477 -0.55866617 -0.019148871 -0.34093925 -0.21560848 -0.001766473 -0.42389664
-0.071933806 0.0954125 0.20565325 0.029677048 -0.05286181 -0.017747357 -0.169197 -0.10055426
-0.010706738 0.0056290007 -0.024877131 0.02154883 -0.22802842 0.14984645 -0.44483003 -0.040069375
-0.19641525 -0.18630598 -0.31451365 -8.7831184e-05 -0.21325578 -0.0065609408 -0.17696297 -0.3325073
0.036498364 -0.124343775 -0.19958289 -0.08087753 -0.0626808 -0.1869327 -0.047536634 -0.14367604
-0.071729906 -0.40512136 -0.19790533 -0.0051305667 -0.104411095 -0.007465768 0.01922299 -0.10831775
-0.17353861 -0.06903311 -0.3779739 -0.18364973 0.033063244 -0.39612094 -0.06778609 -0.071945585
0.23660047 -0.2596992 -0.1510241 -0.3270225 0.002412403 0.038233005 0.023552982 -0.11540547
-0.47242996 -0.10175493 -0.106673755 -0.36721745 -0.49689418 -0.3496564 -0.1357001 -0.53521436
-0.14534286 -0.27233806 -0.04302823 -0.096548095 -0.07664463 -0.1324854 -0.1991956 -0.054553475
-0.050546747 -0.14105697 -0.04964525 -0.042429663 -0.027490472 -0.12622038 -0.08714379 -0.42358008
-0.03599252 0.12130021 -0.9790353 0.3533892 -0.16881366 0.053621747 0.12902647 0.012069737
-0.3983386 -0.08821193 -0.69979405 0.4261433 0.09675525 -0.27753454 -0.29434374 -0.4946014
0.05661577 -0.34081972 0.2764814 -0.10322636 -0.09034564 0.17560467 0.5001909 0.82332623
-0.5472736 -0.9519563 -0.09638363 0.05276357 0.0039593736 0.5418803 -1.5606756 0.093354
0.05909856 -0.044788193 0.28219506 0.020594371 0.10289319 0.10905677 0.022297893 0.15136649
-0.2133738 0.09483945 -0.3952061 0.8617616 0.048048865 -0.037041407 -0.06380631 -0.055772595
-0.0058746757 -0.1348991 -0.7051752 0.085568994 0.02949368 0.021828493 -0.035215624 -0.10281182
0.05823495 -0.49439192 0.16650705 -1.144114 -0.021423262 1.056741 1.231788 0.14134648
00000000: f533 0f3e dfa1 08bf eaee 02c0 7692 0bbe
00000010: 6637 9dbf 7442 04bd 1ff8 a4be 864a 87be
00000020: 3cae dabe 65d6 fc3d 0330 02c0 0dba a0bf
00000030: ef88 53bc f62c d2bf 42fe 33be be98 3bbe
00000040: f8ff 87be d53a a83e 7223 f7be 6131 cdbd
00000050: 033b 57bf b67b 43bf 384c 663f d1e0 7e3f
00000060: 8b88 25be ab3d 673c 2bab 91bd ab97 c0bd
00000070: b4e6 ca3d bedc c5be b763 95be a7d1 23be
00000080: 7e61 51bb cd58 30be 7d69 b9bf 93d8 14be
00000090: 3236 b1bf 1c7c a2be c6c9 f03d 1957 88be
000000a0: 5dbd acbf c06e 95bd 49d2 79bf 4961 05bf
000000b0: d9e2 cdbe 4ed6 e8be 2642 b53d 2f6f e3bf
000000c0: e71f ef3e b90b 3fbf a293 f8bf 4427 e9bd
000000d0: 1e08 943d a991 c53d ecf8 5dbe 553e 38bf
000000e0: 96a3 a1bd 93f0 05bf 54cb 333c 1f88 e8bd
000000f0: c9af 27be 0460 2c3f 21f0 9dbf 7864 2fbf
00000100: d4d0 59be 4cb8 a03e 4bfd babe 941d a4be
00000110: bced 3cbf a8b5 bb3c 820f 07be 10b0 33be
00000120: e03b 24be c89a 6bbe 66d7 c9be 66ed 03bf
00000130: c0ec 86bd 1cdf cebe 0f3f 89be 592d 75bf
00000140: e48b 3dbd 0725 c5be b0ae 84bc 6848 dd3c
00000150: 94a0 4c3e b838 b23d ed8a a1be 9806 dfbd
00000160: 2991 b9be 4a4c 24bf fb0b d3be 6c6d c03d
00000170: 2e7c 893d 81bf 84be 1d4f b1bd 6f59 67be
00000180: 2e32 90bd ab59 fabe 7a30 0abf b802 68be
00000190: 266f 65be 7ee4 f23d 80ed c13c 08f2 edbd
000001a0: e83a 29bf eb93 a2be bf04 0fbf 18de 9cbc
000001b0: 978f aebe 78c8 5cbe 0089 e7ba fb08 d9be
000001c0: 0852 93bd a167 c33d c496 523e 481d f33c
000001d0: a085 58bd e862 91bc fa41 2dbe 64ef cdbd
000001e0: 506b 2fbc 7b73 b83b 20cb cbbc 2c87 b03c
000001f0: 4880 69be 5971 193e c3c0 e3be c91f 24bd
00000200: 1421 49be ffc6 3ebe ef07 a1be 0232 b8b8
00000210: b95f 5abe 29fd d6bb c835 35be 663e aabe
00000220: 4f7f 153d f3a7 febd 755f 4cbe 1ea3 a5bd
00000230: cb5e 80bd 496b 3fbe c6b5 42bd d01f 13be
00000240: 21e7 92bd 116c cfbe b2a7 4abe 501e a8bb
00000250: 7cd5 d5bd 67a3 f4bb 8879 9d3c b2d5 ddbd
00000260: 1bb4 31be 3b61 8dbd cc85 c1be ad0e 3cbe
00000270: 536d 073d 5dd0 cabe 6fd3 8abd 3558 93bd
00000280: 6547 723e 4bf7 84be 10a6 1abe 7e6f a7be
00000290: 6819 1e3b 369a 1c3d 2ff2 c03c b459 ecbd
000002a0: 57e2 f1be e464 d0bd c577 dabd ed03 bcbe
000002b0: ea68 febe 2a06 b3be f8f4 0abe cf03 09bf
000002c0: c2d4 14be e56f 8bbe 5f3e 30bd 02bb c5bd
000002d0: dcf7 9cbd 41aa 07be eef9 4bbe 7773 5fbd
000002e0: 1b0a 4fbd 3d71 10be d158 4bbd baca 2dbd
000002f0: b333 e1bc ea3f 01be 7278 b2bd 7ddf d8be
00000300: e56c 13bd 3f6c f83d 0fa2 7abf 6eef b43e
00000310: 7ddd 2cbe 7aa2 5b3d 841f 043e 25c0 453c
00000320: 09f3 cbbe 75a8 b4bd b425 33bf 742f da3e
00000330: 9e27 c63d 0219 8ebe 39b4 96be 653c fdbe
00000340: f0e5 673d ec7f aebe f88e 8d3e 5868 d3bd
00000350: 2307 b9bd b6d1 333e 830c 003f 82c5 523f
00000360: 1f1a 0cbf 68b3 73bf c864 c5bd 9d1e 583d
00000370: a2bd 813b abb8 0a3f 38c4 c7bf 6230 bf3d
00000380: 5511 723d d373 37bd df7b 903e 87b5 a83c
00000390: aab9 d23d 2859 df3d 12aa b63c d1ff 1a3e
000003a0: a97e 5abe 303b c23d 7458 cabe 699c 5c3f
000003b0: e3ce 443d bbb8 17bd e2ac 82bd ce71 64bd
000003c0: 5a80 c0bb fd22 0abe 5d86 34bf cc3e af3d
000003d0: bb9c f13c abd1 b23c 423e 10bd 018f d2bd
000003e0: c587 6e3d f020 fdbe d380 2a3e 5472 92bf
000003f0: d67f afbc 4a43 873f 3bab 9d3f 22bd 103e

convs.2.lin_l.weight f4 [64, 64]
0.06686325 0.107510045 -0.011899054 -0.13580197 -0.08712962 -0.068703696 -0.1697218 -0.023450166
0.09874062 -0.092781425 0.011790037 0.0517122 0.03864178 -0.03698402 -0.09823608 -0.109056324
-0.123793975 -0.034502044 0.0997916 0.03214244 -0.123678915 -0.011615227 -0.06805897 -0.18650657
-0.16734526 0.06680696 0.046187922 -0.16638787 -0.05817318 -0.057564963 -0.07758393 -0.11718513
0.017128222 -0.17468087 0.09465425 -0.0058026165 0.05367011 0.023492381 -0.10558985 0.108322814
-0.10743673 -0.058818545 0.114429384 -0.07118763 -0.015541897 -0.1087106 -0.003311187 -0.03305891
-0.07514407 -0.16191366 -0.094798714 -0.09277319 -0.027554065 0.04034686 0.03288884 -0.07906927
-0.04881507 0.039642423 -0.042279415 -0.05642324 0.11487536 0.026606008 0.013792868 -0.03796643
-0.8920697 0.22865136 -0.13662787 0.87536305 0.15772802 -0.31931344 -1.3164506 -0.012974313
0.12965105 -0.15223595 -0.6316622 0.3429166 0.112781525 -0.45135644 -0.6990452 0.02060084
-0.528419 0.2129418 -0.033541463 -1.5940877 -0.8930714 -0.026094042 0.20000876 -0.5549145
0.133027 -0.01759673 -0.09484991 -2.2369661 0.34738204 -1.2691385 1.4333115 -1.9203895
-0.6819965 0.20661429 0.09969792 0.32458386 -0.9064194 -0.38468164 -0.36677432 -0.83210826
-1.03194 -3.0313108 -0.06443419 -0.124712646 -0.1387758 -0.033778224 -0.1440975 -0.47971994
0.019077156 0.37343696 0.15417424 -0.1477672 -0.6649582 0.2500431 -0.26909453 0.20493212
-0.23181476 -0.2815865 0.039051853 -0.48185626 0.24916388 0.13152441 -0.09509335 -0.086932786
-0.21884395 0.18863393 0.1679223 -0.23162079 0.11037266 -0.1304484 -0.105143815 0.10647285
0.070472926 -0.11734984 -0.07317136 0.12123569 -0.1863193 -0.11832592 -0.2842541 0.05337292
-0.079766616 -0.024532385 -0.0634984 0.031605292 -0.2114842 0.06166223 -0.28174916 -0.22931422
-0.034378033 -0.06541384 -0.0043596644 -0.27414587 -0.12343688 -0.04075594 0.00044464815 -0.25565726
-0.25534627 0.03852754 0.0068169157 0.04178489 -0.017247997 0.08628514 0.3477754 -0.19708325
0.018726027 -0.2913123 0.028796967 0.002614432 -0.31755877 -0.03554203 -0.1472877 0.0001328211
-0.21326862 -0.06478454 0.0055140555 0.0054858397 -0.046429686 -0.48321953 0.05776074 -0.16906261
-0.25901183 -0.18851274 -0.18065938 -0.06387282 0.07299378 0.06550208 0.04009494 -0.08358596
-1.2606306 0.15696947 0.31907874 0.28969666 -0.10503939 -2.9647233 0.10272006 0.047387816
0.017523186 -0.13911645 -0.78457433 -0.12719649 0.2795644 -0.9005816 0.32690424 0.059544437
0.47703925 0.012214356 -0.1933602 -1.65693 -3.840352 -1.1824261 -0.4468874 -1.8883817
-0.01742285 -0.10714394 0.23414275 -0.4238765 -0.020245312 -0.44987798 0.44152644 -2.7247233
-0.9982687 0.024324642 0.026304947 0.15394376 -0.12213052 -0.7710634 0.12441009 -0.5472647
-0.42316538 -0.46168962 -0.3612506 0.40796533 0.29662696 0.06829783 -0.22082812 -1.28993
1.7505378 -0.9272779 0.1505419 0.9569042 -1.6078633 -0.22030972 -1.58013 0.73011655
-0.301833 0.34694564 -3.3173265 -0.21661872 0.34233084 0.15072002 -0.1965297 0.020028071
00000000: 9aef 883d 3a2e dc3d 40f4 42bc ac0f 0bbe
00000010: 0471 b2bd 86b4 8cbd 8dcb 2dbe 901a c0bc
00000020: 8638 ca3d 3004 bebd 002b 413c 2cd0 533d
00000030: d846 1e3d 8e7c 17bd ff2f c9bd ec58 dfbd
00000040: b287 fdbd 0452 0dbd 8a5f cc3d cba7 033d
00000050: 5f4b fdbd cb4d 3ebc 8062 8bbd 94fb 3ebe
00000060: 8e5c 2bbe 16d2 883d 8c2f 3d3d 9561 2abe
00000070: 0047 6ebd 3dc9 6bbd 53e4 9ebd c2fe efbd
00000080: 7c50 8c3c 8bdf 32be 16da c13d e023 bebb
00000090: 30d5 5b3d 1873 c03c 7e3f d8bd 5ad8 dd3d
000000a0: ca07 dcbd b7eb 70bd f459 ea3d d2ca 91bd
000000b0: 71a3 7ebc aaa3 debd 8000 59bb c868 07bd
000000c0: 22e5 99bd b2cc 25be d425 c2bd dfff bdbd
000000d0: 10b9 e1bc c042 253d 73b6 063d 12ef a1bd
000000e0: 50f2 47bd 1860 223d 2e2d 2dbd 0e1c 67bd
000000f0: c643 eb3d d8f4 d93c 7bfb 613c b082 1bbd
00000100: ae5e 64bf 9523 6a3e 2de8 0bbe cb17 603f
00000110: 7483 213e 0d7d a3be 7481 a8bf 3792 54bc
00000120: 3fc3 043e bee3 1bbe 9db4 21bf c492 af3e
00000130: 00fa e63d 3118 e7be a0f4 32bf 18c3 a83c
00000140: 7846 07bf 6a0d 5a3e c662 09bd 110b ccbf
00000150: 54a0 64bf 2cc3 d5bc 19cf 4c3e e00e 0ebf
00000160: 3b38 083e 0427 90bc ab40 c2bd 742a 0fc0
00000170: 0fdc b13e 2173 a2bf c076 b73f 53cf f5bf
00000180: 5397 2ebf b292 533e 6c2e cc3d db2f a63e
00000190: 1a0b 68bf fef4 c4be d8c9 bbbe 0c05 55bf
000001a0: 9c16 84bf ff00 42c0 13f6 83bd 5869 ffbd
000001b0: 3e1b 0ebe 095b 0abd 4c8e 13be da9d f5be
000001c0: b247 9c3c 2133 bf3e dadf 1d3e 4950 17be
000001d0: b33a 2abf a605 803e c2c6 89be bad9 513e
000001e0: d960 6dbe 1b2c 90be d6f4 1f3d ddb5 f6be
000001f0: d124 7f3e 56ae 063e 4dc0 c2bd d109 b2bd
00000200: a118 60be 4129 413e d3f3 2b3e 002e 6dbe
00000210: 100b e23d 4494 05be a455 d7bd 700e da3d
00000220: 1c54 903d 1d55 f0bd deda 95bd 6b4a f83d
00000230: 7dca 3ebe dc54 f2bd c189 91be 909d 5a3d
00000240: ae5c a3bd 24f8 c8bc 730b 82bd 8d74 013d
00000250: 508f 58be 8991 7c3d 6d41 90be 59d1 6abe
00000260: fbcf 0cbd b1f7 85bd 84db 8ebb d95c 8cbe
00000270: 7acc fcbd b3ef 26bd aa1f e939 82e5 82be
00000280: bfbc 82be 0ecf 1d3d 6f60 df3b a226 2b3d
00000290: ac4b 8dbc 43b6 b03d 9e0f b23e 31d0 49be
000002a0: 5367 993c e326 95be 9ee7 eb3c e456 2b3b
000002b0: 1097 a2be 8594 11bd 96d2 16be e445 0b39
000002c0: 1763 5abe c2ad 84bd 40af b43b 8fc2 b33b
000002d0: 0e2d 3ebd 8d68 f7be 8796 6c3d c01e 2dbe
000002e0: 339d 84be 7c09 41be c6fe 38be c1cf 82bd
000002f0: c37d 953d f425 863d 983a 243d 1e2f abbd
00000300: 585c a1bf 9bbc 203e 4a5e a33e 1f53 943e
00000310: e41e d7bd 07be 3dc0 e55e d23d ba19 423d
00000320: c98c 8f3c 8b74 0ebe ddd9 48bf cc3f 02be
00000330: 1123 8f3e 848c 66bf fe5f a73e dee4 733d
00000340: 7d3e f43e b91e 483c 3700 46be 4816 d4bf
00000350: 54c8 75c0 bd59 97bf 6dce e4be 7eb6 f1bf
00000360: 5dba 8ebc 486e dbbd 1ec3 6f3e 5706 d9be
00000370: 7fd9 a5bc 6856 e6be c10f e23e de61 2ec0
00000380: 8a8e 7fbf 7944 c73c 797d d73c 6fa3 1d3e
00000390: 911f fabd 6964 45bf b8ca fe3d 8a19 0cbf
000003a0: 22a9 d8be 9562 ecbe d7f5 b8be d5e0 d03e
000003b0: 7ddf 973e bcdf 8b3d c420 62be 6d1c a5bf
000003c0: 9f11 e03f 1662 6dbf a827 1a3e acf7 743f
000003d0: 77ce cdbf df98 61be b341 cabf ebe8 3a3f
000003e0: db89 9abe dca2 b13e 144f 54c0 4cd1 5dbe
000003f0: fd45 af3e 5956 1a3e 153f 49be e911 a43c

convs.2.lin_l.bias f4 [64]
-0.2428493 -0.5626416 -0.24336834 0.49242184 1.1446235 -0.55935997 -0.3338151 -1.0059183
-0.37813976 0.38644332 -0.12655236 1.0223404 -0.7625001 -0.18465592 0.11175504 -0.42402226
0.14926994 -0.10157205 -0.5749524 -0.14725085 -0.24467775 -0.9019425 -0.3427357 -0.67277867
-0.7752876 -0.52339584 -0.13826689 -0.84009725 -0.56478053 -0.3477884 -0.55452126 -0.22253391
-0.4564507 -0.4695185 -0.5829121 -0.2141169 -0.39562955 1.0241148 -0.61853886 -0.0871751
-0.5465937 -0.75003153 -0.19013333 -0.08832519 -0.11393337 -0.46715066 -0.2503137 -0.23198533
-0.34393123 -0.557272 -0.48837328 -0.35803023 1.0717505 -0.19671631 -0.8814619 -0.16020155
1.0659983 -0.26502344 -0.051315308 0.57579917 -0.392058 -0.097852916 -0.3582083 -0.51947546
00000000: 7dad 78be 4809 10bf 8d35 79be b71e fc3e
00000010: 0683 923f 3732 0fbf d0e9 aabe eec1 80bf
00000020: 899b c1be e6db c53e f196 01be 0ddc 823f
00000030: 3533 43bf 7116 3dbe d4df e43d 7219 d9be
00000040: 38da 183e 0205 d0bd 1530 13bf edc8 16be
00000050: ce8c 7abe b4e5 66bf 0e7b afbe 393b 2cbf
00000060: 4079 46bf 45fd 05bf d695 0dbe 9d10 57bf
00000070: 7595 10bf 5211 b2be 1bf5 0dbf eedf 63be
00000080: e8b3 e9be bb64 f0be ba39 15bf 7641 5bbe
00000090: f58f cabe 3216 833f 9058 1ebf dc88 b2bd
000000a0: 91ed 0bbf 1102 40bf 50b2 42be d6e3 b4bd
000000b0: e655 e9bd 5f2e efbe 1e29 80be 908d 6dbe
000000c0: c117 b0be 61a9 0ebf 100c fabe bd4f b7be
000000d0: 1f2f 893f 0070 49be 7da7 61bf e00b 24be
000000e0: a272 883f 27b1 87be 0030 52bd 9367 133f
000000f0: d4bb c8be 1c67 c8bd 1467 b7be 58fc 04bf

convs.2.lin_r.weight f4 [64, 64]
0.101851955 -0.07401563 -0.11193809 0.0031501395 0.054688677 -0.17120893 -0.038531486 0.11568944
-0.10759033 0.11011416 -0.0040277014 0.114073396 -0.016049445 -0.11027922 0.012917623 -0.07749128
-0.026151583 -0.043840557 -0.08505754 -0.045357432 0.012311745 -0.13141367 0.068789154 -0.17132746
-0.013621494 0.0094082095 0.016567945 -0.13880663 0.082096085 -0.004423052 0.026567863 -0.211061
-0.028283203 -0.064300746 0.020147309 -0.11416558 -0.120057575 -0.10840653 -0.0256885 -0.13320524
0.01605635 -0.02604537 -0.106604666 0.06476576 -0.15235153 -0.1120583 0.12139082 0.019130021
-0.30811656 -0.13179798 0.01164408 -0.13806677 -0.021604419 -0.09866652 -0.10128802 -0.016549438
-0.11035848 -0.107655376 0.0652365 0.037624776 0.09527367 0.025334284 0.047986798 -0.0031770319
0.5627811 0.059335764 -0.18950465 -0.21866432 -0.0694048 0.011083457 -0.12689541 -0.041108765
0.13682252 0.06275363 -0.35128662 -0.08189828 0.1121845 0.8007927 -0.26941305 -0.14412287
0.17405054 0.009168949 -0.08104931 0.5482525 -0.27794114 -0.14832965 0.2273827 0.06105905
0.15054357 0.0087322835 0.10820178 0.8126407 0.13630715 -1.5216476 0.18019441 -1.9121573
0.27156922 -0.029365405 0.60023004 0.33005393 0.22276866 0.42227507 -0.011482766 0.49787372
1.3317028 0.13580135 0.27936447 -0.006161191 0.4346793 -0.10620888 -0.048674442 0.048926145
-1.7776182 -0.2082637 0.16324857 -0.28956515 -0.07108288 -0.018079564 -0.38441095 0.409849
-0.24789092 0.008859534 -0.18775712 0.13197678 0.022757033 -0.0013994675 0.042970758 0.0884529
-0.16046327 0.10632453 0.070094265 -0.19216472 -0.33211803 -0.105601616 0.0068032164 -0.06844529
0.1349279 -0.0076518697 -0.16893817 -0.3016815 0.032845665 0.012078887 -0.051168416 0.055328827
-0.09193321 0.024242146 -0.11205642 -0.18647134 -0.41746792 0.04397273 -0.0044677537 -0.2082863
0.008265784 -0.09831903 0.12178848 -0.11125487 0.15092465 0.05907574 -0.012516875 -0.18167865
-0.26139382 -0.0020118565 0.07823321 -0.05223426 -0.19097088 0.15209228 0.1168299 -0.23858777
0.06551508 -0.10090677 0.003163957 0.033745095 0.014282702 0.023357296 -0.02400458 -0.031343814
-0.10089583 0.06520678 0.05496057 -0.027360518 0.051669605 -0.1902579 -0.012546225 -0.15453847
-0.12209948 0.16875507 -0.047712512 0.040120203 0.1471318 -0.029700533 0.07062251 0.042146463
-0.23196775 -0.2329097 0.36144114 0.017997164 0.16925746 -0.33112544 0.95352393 -0.040736098
0.010968406 -0.12266044 -0.48336476 0.03625045 0.19818889 1.3113003 -1.5637518 0.018199356
-0.2570347 0.15755184 0.015634548 -1.1426375 -0.74591255 0.0015213576 0.009090668 -1.1553795
0.050768316 0.06405161 -0.14177917 -0.97671074 -0.25878546 -0.4937479 -0.6610706 -0.48926052
-0.920713 -0.05210656 -0.29426137 0.3269511 -1.51637 0.5431974 0.6006012 -0.25881758
-1.0161859 0.5883368 -0.056584578 0.41925812 -1.7143646 -0.022558616 -0.030395735 -0.57246435
0.07243755 0.43289796 -0.0030483368 -0.21943969 0.74984443 0.14044106 -1.4250512 -0.013485515
-0.27989498 0.36339998 1.3395797 -0.3434074 0.022363052 0.1449859 0.033316378 -0.1300623
00000000: c297 d03d 8295 97bd cc3f e5bd 9272 4e3b
00000010: 3c01 603d 6551 2fbe 31d3 1dbd 96ee ec3d
00000020: 5258 dcbd 8883 e13d cffa 83bb 509f e93d
00000030: 207a 83bc 12da e1bd 70a4 533c c0b3 9ebd
00000040: d83b d6bc 2892 33bd a632 aebd b7c8 39bd
00000050: 34b7 493c 4e91 06be 54e1 8c3d 7770 2fbe
00000060: b02c 5fbc e424 1a3c 80b9 873c 5323 0ebe
00000070: fe21 a83d 40ef 90bb d9a4 d93c 6020 58be
00000080: 2db2 e7bc 1cb0 83bd f80b a53c a5cf e9bd
00000090: bfe0 f5bd 3e04 debd b070 d2bc f466 08be
000000a0: 9b88 833c 1a5d d5bc 8c53 dabd e9a3 843d
000000b0: 0a02 1cbe d27e e5bd c09b f83d 90b6 9c3c
000000c0: 74c1 9dbe 0df6 06be d0c6 3e3c 6061 0dbe
000000d0: c0fb b0bc ac11 cabd 1870 cfbd b092 87bc
000000e0: a003 e2bd 6c7a dcbd b79a 853d 701c 1a3d
000000f0: d81e c33d d889 cf3c ce8d 443d c035 50bb
00000100: 6c12 103f 0f0a 733d 820d 42be 8ae9 5fbe
00000110: 1b24 8ebd 6397 353c dff0 01be aa61 28bd
00000120: 341b 0c3e fa84 803d d7db b3be 49ba a7bd
00000130: fdc0 e53d c000 4d3f 82f0 89be f294 13be
00000140: 4e3a 323e 5c39 163c 2efd a5bd 475a 0c3f
00000150: 4d4e 8ebe bae3 17be 03d7 683e 0e19 7a3d
00000160: 1828 1a3e da11 0f3c e598 dd3d 3909 503f
00000170: 1a94 0b3e 59c5 c2bf e284 383e 92c1 f4bf
00000180: 1f0b 8b3e b88f f0bc ada8 193f d4fc a83e
00000190: 781d 643e 7034 d83e 3622 3cbc 4ee9 fe3e
000001a0: 3d75 aa3f 820f 0b3e dc08 8f3e d1e3 c9bb
000001b0: 498e de3e 0b84 d9bd da5e 47bd c866 483d
000001c0: fe88 e3bf 1443 55be a22a 273e e241 94be
000001d0: e793 91bd 981b 94bc 83d1 c4be bad7 d13e
000001e0: 1ed7 7dbe 9427 113c 6743 40be ec24 073e
000001f0: f56c ba3c 566e b7ba 1b02 303d cb26 b53d
00000200: 7c50 24be adc0 d93d 958d 8f3d d4c6 44be
00000210: 600b aabe a945 d8bd 84ed de3b 0b2d 8cbd
00000220: 8a2a 0a3e 89bc fabb 21fe 2cbe ff75 9abe
00000230: 2d89 063d 86e6 453c f995 51bd 7ba0 623d
00000240: 7b47 bcbd 7797 c63c d67d e5bd 58f2 3ebe
00000250: 5bbe d5be c01c 343d 3c66 92bb 0149 55be
00000260: 366d 073c 7d5b c9bd 3d6c f93d 98d9 e3bd
00000270: fe8b 1a3e 67f9 713d 9413 4dbc f809 3abe
00000280: 69d5 85be 5ad9 03bb bc38 a03d 97f3 55bd
00000290: df8d 43be 14be 1b3e 8444 ef3d 5a50 74be
000002a0: c52c 863d 35a8 cebd 645a 4f3b 4c38 0a3d
000002b0: fe01 6a3c cd57 bf3c 41a5 c4bc 5f62 00bd
000002c0: 79a2 cebd 228b 853d 561e 613d 2a23 e0bc
000002d0: 82a3 533d f8d2 42be af8e 4dbc 553f 1ebe
000002e0: 4b0f fabd 21ce 2c3e 326e 43bd 1555 243d
000002f0: b8a9 163e 884e f3bc 89a2 903d c5a1 2c3d
00000300: f488 6dbe e17f 6ebe d00e b93e ca6e 933c
00000310: d451 2d3e 4689 a9be 251a 743f e5da 26bd
00000320: d4b4 333c 6635 fbbd 967b f7be 5a7b 143d
00000330: 07f2 4a3e b0d8 a73f 0529 c8bf d116 953c
00000340: 0d9a 83be 4555 213e 0614 803c f241 92bf
00000350: 20f4 3ebf 4a68 c73a 06f1 143c 7ae3 93bf
00000360: 70f2 4f3d 7e2d 833d 8f2e 11be b709 7abf
00000370: 877f 84be 86cc fcbe ec3b 29bf 5b80 fabe
00000380: d9b3 6bbf b06d 55bd 6da9 96be 2266 a73e
00000390: 6a18 c2bf fc0e 0b3f 00c1 193f bd83 84be
000003a0: 6112 82bf 3e9d 163f 3bc5 67bd 00a9 d63e
000003b0: 4d70 dbbf d9cc b8bc 7a00 f9bc 068d 12bf
000003c0: 235a 943d cda4 dd3e 9bc6 47bb ccb4 60be
000003d0: cef5 3f3f c8cf 0f3e 1468 b6bf 59f2 5cbc
000003e0: 654e 8fbe 900f ba3e 5977 ab3f 18d3 afbe
000003f0: b832 b73c 2f77 143e c176 083d 0d2f 05be

convs.3.lin_l.weight f4 [64, 64]
-0.04697299 -0.48888025 0.036096185 -0.26313537 -0.21131414 -0.1628235 0.03643793 -0.25441644
0.03460908 -0.1838457 0.05904484 -0.3645241 -0.55741954 -0.019719915 -0.045342762 0.009961298
-0.21838504 -0.02367767 0.0346563 -0.7618477 0.018780421 0.18320881 -0.4918605 -0.37795267
-0.8195777 -0.105208546 0.049175825 -0.6677589 -0.02721113 0.023362428 0.03300272 -0.10686563
-0.31288978 0.067097515 0.06985071 -0.08504334 -0.123566985 -0.0759765 -0.11305894 0.011909509
-0.05571007 -0.11075782 -0.093305595 0.011898271 0.028276762 -0.22115283 -0.053003997 -0.05442004
0.06031242 -0.04082845 -0.10651548 -0.058663025 -0.30445573 0.024617888 0.34784552 -0.4551546
-0.28852484 -0.047417358 -0.22351494 -0.1255697 0.07765399 -0.13039531 0.07969186 -0.110574186
-0.03046462 -0.036208976 0.012350197 -0.1616965 -0.13681063 -0.11627106 -0.08271094 0.5277111
-0.16524678 -0.25394422 -0.12062169 -0.32354203 -0.16208209 0.025608024 -0.027354307 -0.13186923
-0.28925988 0.0052605113 -0.09315963 -0.04235148 0.04983919 0.013006247 0.008879455 -0.02943116
-0.0039386917 -0.11926043 -0.039149508 0.005148249 -0.012935072 -0.01818411 -0.0048851073 -0.097240545
-0.31671393 0.04315208 0.094166726 0.04243952 0.065941796 -0.3877124 0.06869492 0.035028942
-0.01293018 -0.00014078521 -0.09093759 -0.5645617 -0.030649167 -0.017083095 -0.09306763 -0.06367379
-0.020013794 -0.03557469 0.027586877 -0.08685021 -0.34918398 0.04826995 -0.029146984 -0.0992933
0.024237713 -0.012444286 -0.128356 -0.18627475 0.03228697 -0.14363381 0.105642974 -0.049838036
0.012877479 -3.9203277 -0.00550648 -0.41511598 -1.4853125 -0.20953679 0.12224235 0.004923716
0.28719813 -0.23307846 -0.02498942 -0.06786316 -0.105334505 -0.5588881 -0.0834363 0.1125744
-0.12755781 0.02362055 -0.30697078 -0.8932945 -0.11213802 0.38869014 -0.5349987 -1.6954763
1.4379294 -0.40786302 -0.2057149 -0.5238862 0.028914124 0.018878419 -0.11866556 0.08951899
-0.20732038 0.29592595 0.13734083 -0.052339192 0.4113528 -3.5649605 0.17611365 -0.061059926
-0.3368891 -0.49852863 -0.25740933 -2.103517 -0.059325516 -0.24084303 0.11860222 -0.031468883
-0.29610816 0.332843 0.18655904 0.028029231 -0.2689032 -0.22094345 -0.045315452 -0.13788427
-0.3330453 0.3665229 -2.062661 -3.5683634 -0.30326262 0.42555505 0.17791146 -0.13541964
0.106113195 -0.24074909 -0.14775658 -0.32608458 -0.122392714 -0.10373338 -0.092326686 -0.3387525
-0.0006365567 -0.25164998 0.016657887 -0.835378 -0.19237185 -0.06971114 0.15036829 -0.011777089
-0.15068111 0.032782614 -0.0159965 -0.44384986 -0.032051582 -0.054153867 -0.230073 -0.020191446
-0.43463153 0.09672023 -0.09095181 -0.07861899 -0.024153307 0.038039878 0.05099246 -0.084723584
-0.13716279 -0.07398322 -0.051634606 0.04219659 -0.035695225 -0.35060188 -0.0793753 -0.14348675
-0.17703554 -0.48246774 0.035436824 -0.23493816 -0.027737156 -0.42624846 -0.08567695 -0.17203943
0.0013729781 0.0533178 0.04208736 -0.021094382 0.46017626 -0.15032692 0.34558702 -0.08432104
-0.04507742 0.034323387 -0.45530555 -0.15631247 -0.12040055 -0.35514858 -0.11912447 0.02648741
00000000: c066 40bd 834e fabe 98d9 133d aeb9 86be
00000010: bc62 58be 34bb 26be f03f 153d df42 82be
00000020: 40c2 0d3d 0c42 3cbe 01d9 713d e7a2 babe
00000030: 0cb3 0ebf a98b a1bc 55b9 39bd b634 233c
00000040: 54a0 5fbe acf7 c1bc c4f3 0d3d 7308 43bf
00000050: 66d9 993c 179b 3b3e 24d5 fbbe 0383 c1be
00000060: d8cf 51bf 9477 d7bd 976c 493d 3ff2 2abf
00000070: e0e9 debc 9062 bf3c dc2d 073d 5edc dabd
00000080: 1733 a0be 6c6a 893d e40d 8f3d 342b aebd
00000090: b010 fdbd 9199 9bbd 728b e7bd 1a20 433c
000000a0: 3e30 64bd ffd4 e2bd 0117 bfbd f7f0 423c
000000b0: aba4 e73c e375 62be b81a 59bd 8ce7 5ebd
000000c0: 280a 773d bc3b 27bd ca24 dabd a448 70bd
000000d0: 9fe1 9bbe 74ab c93c cf18 b23e 060a e9be
000000e0: 87b9 93be b438 42bd 1ae1 64be 5895 00be
000000f0: 0e09 9f3d 5986 05be 7c35 a33d b874 e2bd
00000100: f090 f9bc dd4f 14bd 7b58 4a3c c493 25be
00000110: 1618 0cbe 861f eebd 5a64 a9bd 1318 073f
00000120: 7436 29be fa04 82be 8108 f7bd 4da7 a5be
00000130: d9f8 25be ebc7 d13c 2416 e0bc ba08 07be
00000140: df19 94be 5e60 ac3b 7aca bebd bf78 2dbd
00000150: 2e24 4c3d 2718 553c 227b 113c 9e19 f1bc
00000160: 2410 81bb d03e f4bd 3c5b 20bd a5b2 a83b
00000170: a0ed 53bc d8f6 94bc 4013 a0bb 0d26 c7bd
00000180: 5428 a2be 3cc0 303d 7cda c03d 10d5 2d3d
00000190: 7e0c 873d 3d82 c6be ecaf 8c3d 827a 0f3d
000001a0: 1bd9 53bc be9f 13b9 7d3d babd 1e87 10bf
000001b0: f613 fbbc d9f1 8bbc 3e9a bebd 6767 82bd
000001c0: f8f3 a3bc c4b6 11bd e0fd e13c 86de b1bd
000001d0: 3ec8 b2be b6b6 453d a8c5 eebc 495a cbbd
000001e0: 2b8e c63c 1ee3 4bbc c16f 03be cfbe 3ebe
000001f0: 583f 043d be14 13be 585b d83d f822 4cbd
00000200: 10fc 523c a6e6 7ac0 b46f b4bb 158a d4be
00000210: b81e bebf d090 56be 325a fa3d 2057 a13b
00000220: a20b 933e 1fac 6ebe 9db6 ccbc d7fb 8abd
00000230: 9eb9 d7bd 4a13 0fbf a7e0 aabd 688d e63d
00000240: 849e 02be e27f c13c 462b 9dbe f3ae 64bf
00000250: 9ea8 e5bd 6502 c73e adf5 08bf 5e05 d9bf
00000260: 120e b83f 6cd3 d0be eda6 52be 681d 06bf
00000270: 50dd ec3c eaa6 9a3c ee06 f3bd bb55 b73d
00000280: cb4b 54be 9b83 973e 13a3 0c3e 9f61 56bd
00000290: d69c d23e 5028 64c0 2357 343e f919 7abd
000002a0: ba7c acbe 253f ffbe 28cb 83be 06a0 06c0
000002b0: 50ff 72bd 8e9f 76be b9e5 f23d 84e5 00bd
000002c0: 7d9b 97be 666a aa3e 5509 3f3e 8f9d e53c
000002d0: aead 89be 003f 62be b29c 39bd 8931 0dbe
000002e0: ea84 aabe e4a8 bb3e a302 04c0 1160 64c0
000002f0: 3d45 9bbe 5ae2 d93e 6c2e 363e 72ab 0abe
00000300: e051 d93d ee86 76be 804d 17be 8ff4 a6be
00000310: 08a9 fabd 2b72 d4bd c615 bdbd f870 adbe
00000320: 99de 26ba 44d8 80be 1f76 883c 55db 55bf
00000330: 20fd 44be b7c4 8ebd 25fa 193e b1f4 40bc
00000340: 264c 1abe 1047 063d 180b 83bc 4a40 e3be
00000350: 8548 03bd 72d0 5dbd 4298 6bbe 8868 a5bc
00000360: 0688 debe 4215 c63d f144 babd fe02 a1bd
00000370: 28dd c5bc b4cf 1b3d 78dd 503d 8f83 adbd
00000380: 6774 0cbe 8484 97bd cf7e 53bd 55d6 2c3d
00000390: 2835 12bd 1782 b3be 848f a2bd 31ee 12be
000003a0: ce48 35be 0306 f7be 3426 113d a193 70be
000003b0: 0839 e3bc 3d3d dabe 6677 afbd 1b2b 30be
000003c0: 80f5 b33a c463 5a3d cc63 2c3d 20ce acbc
000003d0: 399c eb3e 4def 19be c8f0 b03e 82b0 acbd
000003e0: 1aa3 38bd ae96 0c3d cf1d e9be 6010 20be
000003f0: 9094 f6bd 09d6 b5be 88f7 f3bd 20fc d83c

convs.3.lin_l.bias f4 [64]
-0.67732704 -0.19333367 -0.24137364 -0.9352631 -0.05185427 0.02057681 0.26336133 -0.22963716
-0.7407237 -0.7608916 -0.7874286 -0.28138384 0.14636673 -0.62471545 -1.5731592 -0.13103549
-0.42892325 -0.921169 0.6060312 0.5476869 0.13574943 0.30246392 -1.1465563 -0.9028872
0.82425433 0.3737527 -0.094833545 -0.2954714 -1.028702 -0.3097376 -1.0843805 -0.44766173
0.43030477 -0.46460605 -1.137059 -0.008456088 -0.5790787 -0.95094824 -0.61976516 -1.0080895
-1.0916251 -0.17046884 -0.73912597 -1.746358 -0.5098253 0.7695001 0.5680895 -0.8875217
-0.10070153 -0.3831239 -1.7906373 -0.38316923 -1.2635554 -0.5358512 0.18826176 -0.44716913
-0.34987086 -0.10461478 -0.03676003 0.74614894 -0.08607239 -0.755674 0.5225532 -0.33971775
00000000: 4e65 2dbf 43f9 45be a72a 77be 676d 6fbf
00000010: 2565 54bd b390 a83c 4cd7 863e 0126 6bbe
00000020: 12a0 3dbf cbc9 42bf ec94 49bf 8b11 90be
00000030: 29e1 153e 5aed 1fbf 485d c9bf 2b2e 06be
00000040: d49b dbbe bbd1 6bbf dc24 1b3f 3535 0c3f
00000050: e601 0b3e 8ddc 9a3e 5bc2 92bf 9e23 67bf
00000060: 5502 533f 845c bf3e 1738 c2bd 0748 97be
00000070: 82ac 83bf ed95 9ebe fbcc 8abf eb33 e5be
00000080: e850 dc3e d8e0 edbe 268b 91bf 678b 0abc
00000090: 803e 14bf 5871 73bf eea8 1ebf 1409 81bf
000000a0: 5fba 8bbf 628f 2ebe 5c37 3dbf a988 dfbf
000000b0: e983 02bf f5fd 443f 506e 113f 9f34 63bf
000000c0: 9b3c cebd d128 c4be 9a33 e5bf c22e c4be
000000d0: 2fbc a1bf 8b2d 09bf b1c7 403e 5af3 e4be
000000e0: 4622 b3be 4640 d6bd af91 16bd 9e03 3f3f
000000f0: b946 b0bd da73 41bf 0cc6 053f 7cef adbe
